checkpoints/cnn_3layers_Adam_best.pth (torch, 978250 bytes, 22 tensors)

conv1.weight f4 [32, 1, 3, 3]
0	0xbe29d1c5	-0.16583927
1	0x3dfc85f3	0.12330236
2	0x3ea5bea0	0.32371998
3	0x3d4249cc	0.04743366
4	0xbe910ade	-0.28328604
5	0x3e31bb59	0.17356624
6	0xbda6371f	-0.08115982
7	0xbe86c2ee	-0.26320595
8	0x3e5a8482	0.2133961
9	0xbd49e464	-0.049290076
10	0x3e2efa27	0.17087613
11	0xbe8abfa2	-0.2709933
12	0x3e77c986	0.24197969
13	0xbe9c3ab0	-0.30513525
14	0xbe29ca9c	-0.16581196
15	0xbdf784be	-0.120858654
16	0x3eb32692	0.34990364
17	0x3db7fe15	0.08984009
18	0x3cb7e76d	0.02244922
19	0x3deeb71b	0.11656018
20	0x3e0aaf07	0.1354333
21	0x3b1747c9	0.0023083559
22	0x3e8cdfc5	0.27514473
23	0x3d91c4b3	0.071175955
24	0xbebe8809	-0.37213162
25	0xbe9c056a	-0.3047288
26	0x3d5dca3d	0.054147948
27	0x3e4802e5	0.19532354
28	0x3e851eb4	0.25999987
29	0x3e4b773a	0.198697
30	0x3da454d4	0.08023992
31	0x3e8b9edb	0.27269635
32	0x3e8c6d73	0.27427253
33	0x3ea6fc9f	0.3261461
34	0x3da284cc	0.07935485
35	0x3e4135fc	0.1886825
36	0xbe979ab4	-0.29610217
37	0xbbebe466	-0.007198858
38	0x3de15466	0.11002426
39	0xbe7cccc2	-0.24687484
40	0x3e9549de	0.2915792
41	0x3e01697a	0.12637892
42	0xbc1cc134	-0.009567548
43	0x3e89aef0	0.2689128
44	0xbea4a459	-0.32156637
45	0x3dceab35	0.10091249
46	0x3c0c4427	0.008561171
47	0x3c9f54d6	0.019449633
48	0x3d253062	0.040329345
49	0x3e6dbd6f	0.23216794
50	0xbd81a63e	-0.06330536
51	0xbce9b00f	-0.028526334
52	0xbe49aff9	-0.19696034
53	0xbea4c23b	-0.32179436
54	0x3e520ece	0.2051346
55	0x3e597370	0.21235442
56	0x3e1ed4c3	0.1551085
57	0x3cac036a	0.020997722
58	0x3d217455	0.039417583
59	0x3e630fa3	0.22173934
60	0xbe0a655d	-0.1351523
61	0x3e4aaa53	0.19791536
62	0x3dea3fb7	0.11437934
63	0x3dc82b14	0.097738415
64	0x3e11000f	0.14160179
65	0xbdf20a78	-0.11818403
66	0x3e5724eb	0.21010177
67	0xbda61dbe	-0.081111416
68	0xbe979e2a	-0.29612857
69	0x3da7df07	0.08196836
70	0xbe2883ae	-0.16456482
71	0x3e349f2b	0.17638843
72	0xbe4cd863	-0.2000442
73	0xbdea2d12	-0.11434378
74	0xbe2dc98f	-0.1697142
75	0x3c976e58	0.018485233
76	0x3e92efc8	0.28698564
77	0x3e5d6be1	0.21623184
78	0x3d94cb42	0.07265331
79	0xbdc49369	-0.09598429
80	0xbe3a1114	-0.18170577
81	0x3e8af7a4	0.2714206
82	0x3e7ab30b	0.24482362
83	0x3e64aa97	0.223307
84	0xbd8a4051	-0.06750549
85	0xbeb05532	-0.3444
86	0xbdf205c8	-0.11817509
87	0xbe828222	-0.25489908
88	0x3de34cff	0.1109867
89	0xbe06a622	-0.13149312
90	0x3dd20d04	0.10256389
91	0x3e4c15fe	0.19930264
92	0x3c174388	0.009232409
93	0xbe30b9e6	-0.17258415
94	0xbead4637	-0.33842632
95	0x3e148f32	0.1450775
96	0xbd323bc3	-0.043514024
97	0x3d257716	0.040396772
98	0x3e155dff	0.14586638
99	0x3eb98133	0.36231384
100	0x3de66e24	0.112514764
101	0x3e81c500	0.25345612
102	0x3e695060	0.22784567
103	0xbb586af4	-0.0033022733
104	0xbe89838b	-0.26858172
105	0x3dd4265f	0.10358881
106	0xbe6c3098	-0.23065412
107	0xbd941559	-0.07230634
108	0xbed0f1ca	-0.4080947
109	0x3da2b011	0.07943738
110	0xbdad3340	-0.08457041
111	0x3e5b50d5	0.21417554
112	0xbdda9a54	-0.10673967
113	0xbedd3d31	-0.43210748
114	0x3e577a6b	0.21042792
115	0x3e8f4703	0.27983865
116	0x3e56c2f7	0.2097281
117	0xbd97b17d	-0.074069
118	0xbd6fd89f	-0.058556195
119	0x3e4135c9	0.18868174
120	0xbe36c81c	-0.17849773
121	0x3d9f1237	0.07767146
122	0x3e1259fd	0.1429214
123	0xbe09de5b	-0.13463728
124	0xbe80f580	-0.25187302
125	0xbe7058e2	-0.23471406
126	0xbe97049b	-0.294957
127	0xbe8db919	-0.2768028
128	0x3d9e2e36	0.07723658
129	0xbe6eff20	-0.2333951
130	0xbd73871e	-0.05945503
131	0x3e8f9ef0	0.28050947
132	0x3e299c51	0.16563536
133	0xbdb34384	-0.08753112
134	0x3e4ae9c6	0.1981574
135	0xbd9c94c7	-0.076455645
136	0x3e77c25f	0.2419524
137	0xbde166b0	-0.11005914
138	0xbe81b773	-0.25335273
139	0x3e2e1aa9	0.17002358
140	0x3d549d00	0.05190754
141	0xbe855308	-0.2603991
142	0x3e43478a	0.19070259
143	0x3d5563c2	0.05209709
144	0x3e46d22b	0.1941611
145	0xbd46df01	-0.048552517
146	0xbe3806ac	-0.17971295
147	0xbbe97ade	-0.0071252426
148	0x3ec58196	0.3857543
149	0x3e8fd236	0.28090066
150	0xbe9e086e	-0.30865806
151	0xbe28b21c	-0.16474193
152	0xbe500cfa	-0.2031745
153	0x3e2fde8b	0.17174737
154	0x3c7790be	0.015110193
155	0xbe599a2d	-0.2125022
156	0x3d9d0f8c	0.07668981
157	0xbe3ffeff	-0.18749617
158	0xbde649be	-0.11244534
159	0xbe87a66b	-0.26494154
160	0xbe750efe	-0.239315
161	0x3ea23eed	0.31688634
162	0xbe57d7fb	-0.21078484
163	0xbe064404	-0.13111883
164	0xbdb20249	-0.08691842
165	0x3eadb183	0.33924493
166	0xbe7f6c4e	-0.24943659
167	0xbe1a35b8	-0.15059555
168	0x3dbb5ae5	0.09148196
169	0x3eadcb26	0.33944052
170	0xbe76b06d	-0.24090739
171	0xbe4471f4	-0.19184095
172	0xbea5e8e7	-0.32404253
173	0xbe23bad7	-0.15989242
174	0xbb9c5eb9	-0.004772034
175	0x3e6d4c18	0.23173559
176	0x3e82bf90	0.25536776
177	0x3e429f9d	0.190062
178	0x3dacf700	0.08445549
179	0xbdde4c1f	-0.10854363
180	0xbeb0c88c	-0.34528005
181	0x3d950a12	0.072773114
182	0x3cec43fe	0.028841015
183	0xbe1ab146	-0.15106687
184	0x3e045f48	0.12926972
185	0x3d8e4349	0.069464274
186	0xbecf7caa	-0.405248
187	0x3d810dcb	0.06301459
188	0x3dc9de2f	0.09856831
189	0x3e0d4bf2	0.13798502
190	0xbea86928	-0.32892728
191	0x3e645358	0.22297418
192	0xbddac7df	-0.10682654
193	0x3c5f057a	0.013612146
194	0x3ad570c3	0.0016284216
195	0x3de0d4f3	0.10978117
196	0xbe7961a8	-0.24353659
197	0x3bafa9e4	0.0053608287
198	0x3e4aff3c	0.19823927
199	0xbe469a68	-0.19394839
200	0xbc42289f	-0.011850505
201	0x3e3efd4d	0.18651314
202	0xbeb3310c	-0.34998357
203	0x3e7b262c	0.2452628
204	0x3d8590b9	0.06521744
205	0xbe9e13b8	-0.3087442
206	0x3e1e7e7a	0.15477934
207	0xbe0bd561	-0.13655616
208	0xbe584d60	-0.21123266
209	0xbe901ff5	-0.2814938
210	0xbdcf4c5c	-0.10121986
211	0xbdbfe7ad	-0.093703605
212	0x3ec293ae	0.38003296
213	0xbdd8f02e	-0.10592686
214	0x3d341d68	0.043973356
215	0xbc02aa54	-0.00797518
216	0x3e88665d	0.26640597
217	0x3d77e05b	0.060516696
218	0x3e4ac476	0.19801506
219	0x3dd28e06	0.10280995
220	0xbd97dc5f	-0.07415079
221	0xbd36a6d9	-0.044592712
222	0xbdcfed08	-0.10152632
223	0xbe6c663a	-0.23085871
224	0xbe928001	-0.28613284
225	0x3d104b22	0.035227902
226	0xbb97dbdf	-0.004634365
227	0x3e80095b	0.25007138
228	0x3e791afa	0.24326697
229	0x3c7ae521	0.015313418
230	0x3d2b4d47	0.041821744
231	0x3c8ed4e8	0.017435506
232	0x3bcb9056	0.0062122745
233	0xbe233af0	-0.15940452
234	0x3e1d462b	0.15358798
235	0xbe42efc2	-0.19036773
236	0xbeedf8c7	-0.46478865
237	0x3e946eb6	0.28990716
238	0xbdfd1bfb	-0.123588525
239	0x3e786dca	0.24260631
240	0x3e485e51	0.19567229
241	0xbd5affad	-0.053466488
242	0xbd107319	-0.035266016
243	0x3d888ad3	0.066671036
244	0xbe469c47	-0.19395553
245	0x3e852d2d	0.2601103
246	0xbe5db605	-0.21651466
247	0xbd8b9d12	-0.06817068
248	0xbeb8d677	-0.36101124
249	0x3e8964fc	0.26834857
250	0x3dbd0f8d	0.09231482
251	0xbdc4008b	-0.09570416
252	0x3dbb81f2	0.091556445
253	0x3e4ae70c	0.198147
254	0xbe9f90c2	-0.3116513
255	0xbd16a8f5	-0.036782224

conv1.bias f4 [32]
0	0xbe5d36a9	-0.21602882
1	0xbe6025d3	-0.21889429
2	0x3d6fbc50	0.0585292
3	0xbda143a5	-0.0787423
4	0xbe908e3e	-0.28233522
5	0xbe0cdc29	-0.1375586
6	0x3d74a057	0.059723224
7	0x3e909d74	0.28245127
8	0x3e621072	0.22076586
9	0x3e283f2c	0.16430348
10	0xbdb52adf	-0.08846068
11	0xbe2f50b9	-0.17120637
12	0xbdecb9c3	-0.11558869
13	0x3e2e8fe3	0.17047076
14	0x3d8f0efc	0.0698528
15	0xbe970679	-0.29497126
16	0xbe874e37	-0.2642686
17	0x3e8da35f	0.27663705
18	0x3eb21e4c	0.3478874
19	0xbe4918bc	-0.19638342
20	0xbe945f39	-0.289789
21	0x3e5e57bd	0.21713157
22	0xbeb3e3e2	-0.35134798
23	0xbeb9dbaf	-0.36300418
24	0xbece6109	-0.40308407
25	0x3e4fefaa	0.20306268
26	0x3d035281	0.032061104
27	0x3e45d8d1	0.1932099
28	0x3e8f1aef	0.27950236
29	0x3ea6eeac	0.32603967
30	0x3e945c84	0.28976834
31	0xbe7d77e0	-0.2475276

bn1.weight f4 [32]
0	0x3f5059fd	0.8138731
1	0x3f6828fd	0.90687543
2	0x3f80c90b	1.0061353
3	0x3f2059c4	0.6263697
4	0x3f6bebad	0.9215649
5	0x3f865a29	1.0496265
6	0x3f2c75cb	0.6736724
7	0x3f520299	0.82035214
8	0x3f8d9235	1.1060244
9	0x3f767368	0.96269846
10	0x3f672de9	0.9030443
11	0x3f207556	0.6267904
12	0x3f5840f4	0.8447411
13	0x3f9c4a05	1.2210089
14	0x3f708b48	0.93962526
15	0x3f64e597	0.89412826
16	0x3f89a045	1.0752035
17	0x3fb65e89	1.42476
18	0x3fa4ff4f	1.2890414
19	0x3f875286	1.0572059
20	0x3f80291e	1.0012548
21	0x3f485c6a	0.7826601
22	0x3f8c04d4	1.0938973
23	0x3f9f15ef	1.2428569
24	0x3f81ba24	1.0134931
25	0x3f1d5b88	0.6146779
26	0x3f5fcb6c	0.8741977
27	0x3f9cf191	1.226122
28	0x3f821129	1.0161487
29	0x3f6259db	0.8841836
30	0x3f9fec3c	1.2493968
31	0x3f8fae3e	1.122505

bn1.bias f4 [32]
0	0xbea9f2fc	-0.33193195
1	0xbc9bd5d8	-0.019022867
2	0xbe3d426c	-0.18482369
3	0xbeba374f	-0.36370322
4	0xbe629893	-0.22128515
5	0xbce2c3e0	-0.027681291
6	0xbeba48f4	-0.36383784
7	0xbe8a1825	-0.26971546
8	0xbd17c87b	-0.037056427
9	0xbe2fd3b6	-0.17170605
10	0xbe82db39	-0.2555788
11	0xbeb9fa03	-0.36323556
12	0xbe13cebb	-0.1443433
13	0xbd050fa5	-0.032485623
14	0xbe4ad6a2	-0.19808438
15	0xbe7a6aee	-0.24454853
16	0xbe4db52c	-0.20088643
17	0xbc43c9e4	-0.01194999
18	0x3df440c5	0.11926416
19	0xbe136f20	-0.1439786
20	0xbdcaf43c	-0.09909865
21	0xbe6890fa	-0.22711554
22	0xbc7c8f65	-0.015415047
23	0x3db1687e	0.086625084
24	0xbd234578	-0.039861172
25	0xbecead2d	-0.40366498
26	0xbe983baf	-0.29733035
27	0x3dd124bc	0.10212085
28	0xbcd41172	-0.025887225
29	0xbe2d269b	-0.16909258
30	0x3d9d29f9	0.07674021
31	0x3a393a9c	0.00070659234

bn1.running_mean f4 [32]
0	0xbe5314b7	-0.20613371
1	0xbe5fb93e	-0.21848008
2	0x3d52a36a	0.051425375
3	0xbcbf5419	-0.02335553
4	0xbe97f77c	-0.29681003
5	0xbe18d931	-0.14926602
6	0x3db48125	0.08813695
7	0x3e929207	0.28627035
8	0x3e5378ff	0.20651625
9	0x3e2dc3d9	0.16969241
10	0xbda128b7	-0.07869094
11	0xbe1964ad	-0.14979811
12	0xbded552a	-0.115885094
13	0x3e206137	0.15662085
14	0x3d8c05eb	0.06837066
15	0xbe990264	-0.29884636
16	0xbe8df06f	-0.277225
17	0x3e892cbb	0.2679194
18	0x3eac6148	0.3366797
19	0xbe5231f4	-0.20526868
20	0xbe9fd04b	-0.31213602
21	0x3e610997	0.21976314
22	0xbeae7b72	-0.34078556
23	0xbec1a226	-0.37819022
24	0xbed019e4	-0.40644753
25	0x3e5a34c2	0.21309188
26	0x3d051e7d	0.03249978
27	0x3e469a27	0.19394742
28	0x3e891ba8	0.26778913
29	0x3ea494f6	0.32144898
30	0x3e8e151f	0.2775049
31	0xbe8a503c	-0.2701434

bn1.running_var f4 [32]
0	0x3e3545d8	0.17702425
1	0x3dcd4e5e	0.10024713
2	0x3e4b6f76	0.19866738
3	0x40187a53	2.382466
4	0x3e1a71ff	0.15082549
5	0x3e3070d8	0.17230546
6	0x3f427f20	0.7597523
7	0x3defedf2	0.11715306
8	0x3d82f1d0	0.06393778
9	0x3e5f19f6	0.21787247
10	0x3d8c206d	0.06842122
11	0x3eea6639	0.45781115
12	0x3e7a9f7e	0.24474904
13	0x3e93e93c	0.2888888
14	0x3ebe6b23	0.37191114
15	0x3dcb7393	0.099341534
16	0x3e003fd0	0.12524343
17	0x3e908c50	0.2823205
18	0x3e5be71d	0.21474881
19	0x3e34f7ba	0.17672625
20	0x3ea83ca5	0.32858768
21	0x3d8252cd	0.06363449
22	0x3dbe3d79	0.09289069
23	0x3ea03ebb	0.3129786
24	0x3e975ec7	0.29564497
25	0x3e4809a6	0.1953493
26	0x3e5bee05	0.21477516
27	0x3dfd0c86	0.12355904
28	0x3e90b321	0.28261665
29	0x3e962fda	0.29333383
30	0x3e6cf9a0	0.231421
31	0x3e95bad7	0.2924411

conv2.weight f4 [64, 32, 3, 3]
0	0x3e048364	0.12940747
1	0xbbd6d68d	-0.006556338
2	0xbdb83c02	-0.089958206
3	0x3db13945	0.086535014
4	0x3a602c2c	0.0008551504
5	0xbe0f69db	-0.14005224
6	0x3b11d2be	0.0022250856
7	0xbd4e2f04	-0.050337806
8	0xbd94c9fe	-0.072650895
9	0x3be6f6e1	0.007048473
10	0x3ddd91af	0.108188026
11	0x3c3eaebd	0.011638341
12	0xbd9408db	-0.072282515
13	0xbdb69feb	-0.08917221
14	0xbd166812	-0.036720343
15	0xbdde60ef	-0.10858332
16	0xbe31900e	-0.17340109
17	0xbd10d868	-0.03536263
18	0x3d843d3c	0.06456992
19	0xbd1c3e4b	-0.038145345
20	0xbdc31302	-0.0952511
21	0x3dbcae76	0.09212963
22	0x3d79f430	0.06102389
23	0xbd5fdeaf	-0.054655727
24	0xbd0a5d5d	-0.033780444
25	0xbc7724d6	-0.015084466
26	0xbc1d68c9	-0.009607502
27	0xbc0220d6	-0.007942399
28	0xbb80ec2d	-0.0039344043
29	0xbca4c261	-0.020112218
30	0x3cf946de	0.0304293
31	0x3d047323	0.032336365
32	0x3c0581ba	0.008148605
33	0xbdb9da14	-0.09074798
34	0x3d41c92c	0.047310993
35	0x3ce83c8d	0.028349185
36	0xbca54706	-0.020175468
37	0xbd9f5004	-0.07778934
38	0x3dbc7bdb	0.09203311
39	0xbdef69c8	-0.11690098
40	0xbdda2d6d	-0.106531955
41	0x3ce0c0bd	0.027435655
42	0x3d0afc9f	0.033932324
43	0x3db83217	0.08993929
44	0xbdac29f9	-0.08406443
45	0xbcaf8894	-0.02142743
46	0xba37f1a2	-0.0007016902
47	0xbd81ddd0	-0.063411355
48	0xbd6b0a69	-0.057382975
49	0xbe00b78e	-0.1257002
50	0x3ca8fa90	0.02062729
51	0x3c6b0ef9	0.0143468315
52	0xbd5757d9	-0.052574012
53	0xbc7264c5	-0.014794533
54	0xbcc960de	-0.024582323
55	0xbd125b49	-0.035731588
56	0xbdb88ef6	-0.09011643
57	0x3d99074b	0.07472094
58	0x3d62ee30	0.055402935
59	0xbba03c11	-0.004889973
60	0xbd725b74	-0.059169248
61	0x3cf80665	0.030276487
62	0x3d5789f6	0.052621804
63	0x3ca78d7c	0.020453207
64	0x3d851a9c	0.06499216
65	0x3cebdb23	0.028791016
66	0xbc1ccafe	-0.0095698815
67	0xbd6a808e	-0.057251506
68	0x3d103245	0.03520419
69	0xbe12e32f	-0.14344476
70	0xbdf2b195	-0.11850277
71	0xbcee7039	-0.029106246
72	0x3d19cb21	0.037547234
73	0xbdf407b4	-0.11915532
74	0x3d52ba8b	0.051447432
75	0xbd9bee72	-0.07613839
76	0x3d2f1d14	0.04275234
77	0x3e0135a4	0.12618119
78	0xbd664de8	-0.05622664
79	0xbdce1023	-0.100616716
80	0xbdc43fd8	-0.0958249
81	0xbd21c611	-0.03949553
82	0xbd2930a6	-0.04130616
83	0x3d76d586	0.060262226
84	0x3da65679	0.08121962
85	0xbc9c9370	-0.019113272
86	0xbcc74e40	-0.024329305
87	0xbcd12282	-0.02552915
88	0xbd4c788e	-0.049919657
89	0xbd80c39c	-0.062873095
90	0xbcbd1ce3	-0.023085063
91	0xbdbd2cb7	-0.09237044
92	0x3d9c3a3e	0.07628296
93	0x3e09ddde	0.13463542
94	0xbdb1443f	-0.08655595
95	0xbe242a4f	-0.16031764
96	0x3d9a2a3e	0.07527588
97	0xbd063f02	-0.032774933
98	0xbda02a26	-0.07820539
99	0x3c0b154d	0.008488965
100	0x3ce78966	0.028263759
101	0xbda2056f	-0.079111926
102	0xbc1ffe4b	-0.009765218
103	0xbd906636	-0.07050745
104	0xbce1a26b	-0.027543267
105	0xbe074cbd	-0.13212867
106	0xbd82207c	-0.06353852
107	0x3cff3481	0.031152966
108	0x3d1dc7d5	0.038520653
109	0x3cb72ea4	0.022361107
110	0x3d7c315e	0.061570518
111	0xbd74171e	-0.05959236
112	0xbbaa9e87	-0.005206886
113	0xbb914c23	-0.004434125
114	0xbd5caca4	-0.05387558
115	0xbd8be5e4	-0.068309575
116	0xbd800b0c	-0.06252107
117	0xbdce6bb1	-0.10079134
118	0xbcafef10	-0.021476299
119	0xbd8fab83	-0.07015135
120	0x3d6abe24	0.05731024
121	0x39f9d5a3	0.00047652153
122	0xbd6e9d0e	-0.058255248
123	0xbd8ae2d7	-0.067815475
124	0xbd5e08a3	-0.054207455
125	0x3d252439	0.040317748
126	0x3da408cd	0.08009491
127	0xbc643ed6	-0.013930997
128	0x3d994428	0.07483703
129	0x3b49e9df	0.0030809564
130	0xbdfde517	-0.12397211
131	0x3c3a600d	0.011375439
132	0x3bb2b5b9	0.005453792
133	0xbdd0d2bd	-0.10196445
134	0xbda3e3aa	-0.08002408
135	0x3d2e140f	0.042499598
136	0xbde6555f	-0.11246752
137	0xbd19cf61	-0.037551288
138	0x3cc55687	0.024089111
139	0x3d98dfec	0.07464585
140	0xbe0c45ac	-0.13698453
141	0x3ccf01df	0.025269447
142	0x3d322df4	0.043500856
143	0xbdd559ca	-0.104175165
144	0x3de699c3	0.112597965
145	0x382ab11c	4.0696104e-05
146	0x3c2ce19d	0.010551837
147	0x3d637932	0.055535503
148	0x3d5eb893	0.054375242
149	0x3d149ea9	0.036284123
150	0xbbbf56ae	-0.0058391904
151	0xbdc83272	-0.09775247
152	0xbd171783	-0.036887657
153	0xbdc39b44	-0.09551099
154	0xbe0c63d2	-0.13709953
155	0x3d833f79	0.06408591
156	0xbd71defb	-0.05905054
157	0xbe500b0a	-0.20316711
158	0xbde0acc0	-0.109704494
159	0x3db00b37	0.08595889
160	0xbd9d6827	-0.07685881
161	0x3d1e16b3	0.038595866
162	0x3d7e92b2	0.06215162
163	0x3e058be1	0.13041641
164	0xbd1b64c0	-0.03793788
165	0x3cabf6f2	0.020991776
166	0xbba89118	-0.0051442496
167	0xbd137790	-0.036002696
168	0xbd41f50e	-0.047352843
169	0xbde19050	-0.110138535
170	0x3db6545f	0.08902811
171	0xbd3a275d	-0.045447696
172	0xbd413a89	-0.047174964
173	0x3d1819a7	0.03713384
174	0xbe0e0a3e	-0.13871095
175	0xbd6f9a3c	-0.0584967
176	0x3dc0db6c	0.094168514
177	0x3d4a2add	0.049357284
178	0xbd97be45	-0.07409338
179	0xbe50ce4e	-0.20391199
180	0x3d41017b	0.047120553
181	0xbdd4b840	-0.103867054
182	0xbd63568d	-0.055502463
183	0x3d2a62af	0.04159802
184	0xbd7a3d2e	-0.0610935
185	0xbe01bcb4	-0.12669641
186	0x3ca45c76	0.02006362
187	0x3d03b7d0	0.03215772
188	0xbdc068c9	-0.09394986
189	0xbbe65795	-0.0070294836
190	0xb8f4f7d2	-0.00011680987
191	0xbcdae27a	-0.02671932
192	0xbd26e71a	-0.04074774
193	0xbd61b6ee	-0.055106096
194	0xbddec0d3	-0.10876622
195	0xbd53b38d	-0.051684905
196	0xbd7a8b65	-0.061168093
197	0xbd69c0bc	-0.05706857
198	0xbda4fd40	-0.08056116
199	0x3d907987	0.070544295
200	0x3d1c086c	0.03809397
201	0xbd27b4f8	-0.04094407
202	0xbdcab3f9	-0.09897608
203	0xbd9d2b42	-0.076742664
204	0xbbced251	-0.0063116928
205	0xbe015540	-0.12630177
206	0xbd6d48f4	-0.0579309
207	0x3d9cb2f3	0.07651319
208	0xbe47c113	-0.19507246
209	0x3d40514d	0.046952534
210	0xbe87e985	-0.2654535
211	0xbe32275f	-0.17397831
212	0x3d87bb06	0.06627469
213	0x3e508031	0.20361401
214	0x3d83529f	0.06412243
215	0x3d43de76	0.047819577
216	0xbd811bf2	-0.06304158
217	0xbcb4ca03	-0.022068983
218	0xbd821e71	-0.063534625
219	0x3d8ae396	0.0678169
220	0xbdf30279	-0.11865706
221	0xbc368a41	-0.011141361
222	0xbd83962f	-0.064251296
223	0xbd6ee205	-0.058321018
224	0x3cd4c9a6	0.02597506
225	0xbd848dcb	-0.06472357
226	0xbd5837e7	-0.052787688
227	0xbd7f0b3a	-0.062266566
228	0xbd7c15ad	-0.06154411
229	0xbce220b6	-0.027603488
230	0xbc3e5124	-0.011616025
231	0xbda8b3dc	-0.082374305
232	0xbd0b9f12	-0.03408725
233	0x3d60644f	0.05478316
234	0xbb4f12d8	-0.0031596925
235	0x3e1971fa	0.14984885
236	0x3ca0801f	0.019592343
237	0x3c39fb25	0.011351381
238	0x3d9be2e0	0.07611632
239	0xbc11162a	-0.008855382
240	0xbe5ad075	-0.21368583
241	0xbdbb67cb	-0.09150656
242	0x3cba6222	0.022751871
243	0x3d87d807	0.06633001
244	0x3d9f63c5	0.077827014
245	0x3d195841	0.03743768
246	0x3b883348	0.004156504
247	0x3bb8fac6	0.005645129
248	0x3cce57ae	0.025188293
249	0xbd9ab4f3	-0.075540446
250	0x3b6e59b4	0.0036369385
251	0x3d14ac94	0.036297396
252	0x3cc1e047	0.023666514
253	0x3d3db6ba	0.04631684
254	0xbcb9da87	-0.02268721
255	0xbda3629b	-0.07977792

conv2.bias f4 [64]
0	0x3d2542dc	0.040346965
1	0xb9ca392d	-0.00038571042
2	0xb9e17a24	-0.00043006346
3	0x3b0bfd92	0.0021360856
4	0x3d88b6ae	0.066754684
5	0x3d0d452f	0.034489807
6	0x3d3df58a	0.046376742
7	0xbd601a70	-0.054712713
8	0x3c4ad095	0.012378831
9	0xbd1ef543	-0.03880812
10	0x3cac0d93	0.021002566
11	0x3da54b54	0.08071008
12	0x3d1bc3b5	0.038028438
13	0xbd4ce3ac	-0.050021812
14	0x3bcab5b1	0.00618621
15	0xbdb17471	-0.086647876
16	0xbc2fbec9	-0.010726639
17	0x3c1b4841	0.009477676
18	0xbd832313	-0.06403174
19	0x3d4bb458	0.049732536
20	0x3d65851a	0.05603514
21	0x3da4ee93	0.08053317
22	0x3d10f60a	0.03539089
23	0xbcbfb2d8	-0.023400709
24	0x3df89f12	0.12139715
25	0x3d449401	0.04799271
26	0x3bae806a	0.0053253667
27	0x3ccc5b4a	0.024945874
28	0xbceb5d5d	-0.028731043
29	0xbdb6ec8f	-0.08931839
30	0xbd18b3c4	-0.037280813
31	0x3c25ae6f	0.010112389
32	0x3ceff00f	0.029289274
33	0xbe1ee75c	-0.15517944
34	0xbd6b69a2	-0.057473786
35	0xbc079002	-0.00827408
36	0x3dad515a	0.08462782
37	0xbd80198a	-0.06254871
38	0x3d3f748e	0.046742015
39	0x3d392237	0.045198645
40	0xbbd19118	-0.0063954704
41	0x3d8cb5f1	0.0687064
42	0x3b0d230f	0.002153579
43	0xbd53d3a2	-0.0517155
44	0xbd0f777a	-0.03502605
45	0xba3a8d77	-0.0007116417
46	0xbc911126	-0.017708372
47	0x3d243c57	0.040096607
48	0x3df26bc5	0.11836962
49	0x3d2ef074	0.042709783
50	0x3d064448	0.03277996
51	0x3ce4ef70	0.027946204
52	0x3d2974df	0.041371223
53	0x3d102227	0.03518882
54	0x3c607e4f	0.013701989
55	0xbd875d5d	-0.066096045
56	0x3b35f47c	0.0027764132
57	0xbcbb8ab4	-0.022893287
58	0xbce29bc6	-0.02766217
59	0x3910c8f3	0.0001380777
60	0x3d653e6e	0.05596774
61	0xbdc9c482	-0.09851934
62	0x3cdf5fb0	0.027267307
63	0xbd83877a	-0.064223245

bn2.weight f4 [64]
0	0x3f7a31cc	0.97732234
1	0x3f6e55bf	0.9309959
2	0x3f9b5d32	1.2137816
3	0x3f641be1	0.8910504
4	0x3f7bbf2f	0.983386
5	0x3f830a24	1.023747
6	0x3fa65c24	1.2996869
7	0x3f2a47d6	0.6651586
8	0x3f77d639	0.9681125
9	0x3f9451d3	1.1587471
10	0x3f81a914	1.0129724
11	0x3f7640e0	0.9619274
12	0x3f81a77d	1.0129238
13	0x3f6026b5	0.8755906
14	0x3f2bb256	0.67068994
15	0x3f913f90	1.1347523
16	0x3f685a53	0.90762824
17	0x3f9e2a02	1.235657
18	0x3f6e76cb	0.93150014
19	0x3f827801	1.0192872
20	0x3f80d91a	1.0066254
21	0x3f771e3f	0.96530527
22	0x3f817284	1.0113072
23	0x3f860c13	1.0472435
24	0x3f7d2e5b	0.9889886
25	0x3f77766e	0.96665084
26	0x3f746085	0.9545978
27	0x3f72ca34	0.9483979
28	0x3f8bb852	1.0915625
29	0x3f6a176e	0.91442
30	0x3f8ce20b	1.1006483
31	0x3f86838a	1.0508893
32	0x3f6f8765	0.9356597
33	0x3f8bc326	1.091893
34	0x3f8bc016	1.0917995
35	0x3f710035	0.9414094
36	0x3f794c4e	0.97382057
37	0x3f900964	1.1252866
38	0x3f78e5e1	0.9722577
39	0x3f8ab522	1.0836527
40	0x3f633793	0.88756675
41	0x3f5ec8ec	0.8702533
42	0x3f947547	1.159829
43	0x3f8883f5	1.066527
44	0x3f78b806	0.971558
45	0x3f90fbdb	1.132686
46	0x3f8180e3	1.0117458
47	0x3f838229	1.0274097
48	0x3f688f93	0.90844077
49	0x3f731c8f	0.9496545
50	0x3f6ee7b6	0.9332231
51	0x3f5bbcd5	0.8583501
52	0x3f829e82	1.0204623
53	0x3f80771d	1.003635
54	0x3f727bff	0.94720453
55	0x3fabd37c	1.3423915
56	0x3f83095e	1.0237234
57	0x3f917ff7	1.1367177
58	0x3f6e5b4c	0.9310806
59	0x3f6c5c06	0.92327917
60	0x3f53f5dd	0.8279703
61	0x3f771fd5	0.96532947
62	0x3f4deeeb	0.80442685
63	0x3f82de42	1.0224078

bn2.bias f4 [64]
0	0x3d6e9122	0.05824388
1	0xbe9035c5	-0.28166023
2	0xbbdcaec8	-0.0067347027
3	0xbe35940b	-0.17732255
4	0xbdf5b67e	-0.11997698
5	0xbbe027ca	-0.0068406807
6	0xbdd10269	-0.10205538
7	0xbed4867f	-0.41508862
8	0xbe1484cd	-0.14503784
9	0x3c877483	0.01653505
10	0xbea4d7fb	-0.3219603
11	0xbe879c4e	-0.2648644
12	0xbeb50ee6	-0.3536293
13	0xbe2576b4	-0.16158563
14	0xbeef8401	-0.46780398
15	0xbc93d7e3	-0.018047279
16	0xbe9e5650	-0.30925226
17	0xbe346528	-0.17616713
18	0xbe2863c4	-0.16444308
19	0xbe88e4d6	-0.26737088
20	0xbe37fca5	-0.1796747
21	0xbda600c7	-0.08105617
22	0xbea9e425	-0.33181873
23	0xbe2a8f94	-0.16656333
24	0xbd4ca1d9	-0.049959037
25	0xbea9eea5	-0.33189884
26	0xbe22b942	-0.15890983
27	0xbdc1571e	-0.094404444
28	0xbe9db60e	-0.3080296
29	0xbec49702	-0.3839646
30	0x3acd8935	0.001568115
31	0x3da35c57	0.07976597
32	0xbe5b0cd3	-0.21391611
33	0xbb4c1d7a	-0.00311455
34	0x3dfa3845	0.12217764
35	0xbe70769b	-0.23482744
36	0xbe0e3053	-0.13885622
37	0xbe00ade6	-0.12566337
38	0xbe1f430d	-0.15552922
39	0xbc54f47a	-0.012997741
40	0xbea7c0bd	-0.32764235
41	0xbe51ef5f	-0.20501469
42	0xbe04a40e	-0.12953207
43	0xbe873777	-0.26409504
44	0xbe1c48f5	-0.15262206
45	0xbdf03e26	-0.11730604
46	0xbd8ba023	-0.06817653
47	0xbdf6479b	-0.120253764
48	0xbf05e476	-0.5230173
49	0xbdf97325	-0.12180165
50	0xbddfd64c	-0.10929546
51	0xbe6402c1	-0.22266676
52	0xbe959d15	-0.29221407
53	0xbea43ef4	-0.3207928
54	0xbe9ed7a6	-0.31023902
55	0x3e3b8c44	0.18315226
56	0xbd8b02bb	-0.0678763
57	0xbda516ae	-0.080609664
58	0xbe4c63e9	-0.19959988
59	0xbe1d13ed	-0.15339632
60	0xbeac9d2f	-0.33713672
61	0xbeb5ae45	-0.3548452
62	0xbecf2717	-0.4045951
63	0xbd144410	-0.036197722

bn2.running_mean f4 [64]
0	0xc010511b	-2.2549503
1	0xbfcba4bc	-1.5909648
2	0xbf775e38	-0.9662814
3	0xbff311b0	-1.8989773
4	0xbff47ffc	-1.9101558
5	0xc03466aa	-2.818766
6	0xbfd168e0	-1.636013
7	0xbfd0b85d	-1.6306263
8	0xbffd49ed	-1.9788185
9	0xbffc381c	-1.9704623
10	0xbfe9a24a	-1.8252652
11	0xbf33bb11	-0.70207316
12	0xbf998850	-1.1994724
13	0xc00ca5ec	-2.197627
14	0xbf940fb2	-1.156729
15	0xc01f1da9	-2.4861853
16	0xbfa2270a	-1.2668164
17	0xbf14c884	-0.5811846
18	0xbf389171	-0.72096926
19	0x3f086841	0.5328408
20	0xbf179953	-0.5921833
21	0xbf692486	-0.91071355
22	0xbda07188	-0.07834154
23	0xbfa555ea	-1.2916844
24	0xbfb2ae71	-1.3959485
25	0xbea7625f	-0.3269224
26	0xc00fa2ea	-2.2443185
27	0xbf01e6b2	-0.5074264
28	0x3e1ae5d1	0.1512673
29	0x3cd486d4	0.025943197
30	0xc037473c	-2.8637228
31	0xbfeee148	-1.86625
32	0xbeca911e	-0.3956384
33	0xbe4d51ea	-0.20050779
34	0xc01404f3	-2.312802
35	0xbe2bacf6	-0.16765198
36	0xbf9ee7f8	-1.2414541
37	0xbf89a1b5	-1.0752474
38	0xbf63e35c	-0.890188
39	0xbff24638	-1.8927679
40	0x3f3680df	0.7129039
41	0xbff4c708	-1.912324
42	0xbe07a828	-0.1324774
43	0xbf86afe4	-1.0522428
44	0xbfbff2c5	-1.4995962
45	0xbf889ddd	-1.0673176
46	0xbf90171d	-1.1257054
47	0xbfeba962	-1.8411067
48	0xbf861fd3	-1.0478462
49	0xbfcbc5fb	-1.5919794
50	0xbfea7500	-1.8316956
51	0xbfda4046	-1.7050865
52	0x3e82b287	0.2552683
53	0x3d5853f0	0.052814424
54	0x3eb8dff9	0.36108378
55	0xc04831e7	-3.1280458
56	0xbf8bf60e	-1.0934465
57	0xbf88329c	-1.0640445
58	0xc019d96e	-2.4038959
59	0xbfd6e51e	-1.6788671
60	0xbf539a1b	-0.8265702
61	0xbf575ab0	-0.84122753
62	0xc00f4ec8	-2.2391834
63	0xbff96750	-1.9484653

bn2.running_var f4 [64]
0	0x408c068e	4.3758
1	0x401a5e17	2.4119928
2	0x40779ac2	3.8688207
3	0x4083f9dc	4.1242504
4	0x40b25a1c	5.5734997
5	0x40cf73ca	6.4828844
6	0x40d5bc9d	6.679274
7	0x406e736c	3.7257948
8	0x40e01ea1	7.003739
9	0x40f5516a	7.6661882
10	0x40b50533	5.6568847
11	0x4019bbfe	2.4020991
12	0x4060d53d	3.513015
13	0x40f5cbb9	7.6811185
14	0x40816975	4.044123
15	0x40f308ce	7.594825
16	0x40929ba1	4.5814977
17	0x40b8a64e	5.770301
18	0x4006fab9	2.109053
19	0x4017c46a	2.3713632
20	0x4094ccb7	4.6499896
21	0x406adbd8	3.6696682
22	0x3fee2128	1.8603868
23	0x4077af5f	3.8700788
24	0x40cdf5ce	6.4362555
25	0x4024401b	2.5664127
26	0x408aeae6	4.341174
27	0x40723542	3.7845006
28	0x40322f32	2.7841306
29	0x4048c216	3.136846
30	0x41267a18	10.404808
31	0x4059e9dd	3.404899
32	0x4022c192	2.5430646
33	0x40419098	3.0244503
34	0x40a8897e	5.2667837
35	0x40173b00	2.362976
36	0x40b01c8c	5.5034847
37	0x403305c7	2.7972276
38	0x401c142a	2.4387307
39	0x4081f23e	4.0608206
40	0x40683226	3.6280608
41	0x40d5493f	6.665191
42	0x4099bae4	4.804064
43	0x403424d0	2.8147469
44	0x40974791	4.727486
45	0x407bc820	3.9340897
46	0x405eae0d	3.4793732
47	0x40dbeb40	6.872467
48	0x3fe06031	1.7529355
49	0x40c5a962	6.1769266
50	0x40b212da	5.564801
51	0x40696b81	3.6471865
52	0x40379bc8	2.8688831
53	0x40baeaa4	5.8411427
54	0x400957ac	2.145976
55	0x4129838e	10.594618
56	0x40c7f54a	6.2486925
57	0x4083a758	4.1141777
58	0x40e3665f	7.1062465
59	0x40b11916	5.5343122
60	0x40829d02	4.081666
61	0x3fd5964c	1.6686492
62	0x4026b407	2.604738
63	0x40b04131	5.507958

conv3.weight f4 [128, 64, 3, 3]
0	0x3dc9d1b5	0.098544516
1	0xbdae9c9b	-0.08525964
2	0xbd6b4fd1	-0.057449166
3	0x3e3e2026	0.18566951
4	0x3d9a18ea	0.07524283
5	0x3c8c1d3a	0.01710378
6	0xbd180d6e	-0.037122183
7	0x3bb7ab9a	0.0056051733
8	0xbd8f10a7	-0.06985598
9	0xbbc789cf	-0.006089426
10	0x3d213e3f	0.039366003
11	0x3b2d7922	0.0026469906
12	0x3ddd977f	0.10819911
13	0xbc05a4b9	-0.008156949
14	0xbdd88358	-0.10571927
15	0xbdc19352	-0.09451927
16	0x3cae5961	0.021282854
17	0x3b445c31	0.0029962177
18	0x3c26ddc4	0.010184709
19	0xbc3c9b06	-0.01151157
20	0xbcfc29e8	-0.030781701
21	0x3e0a2c6a	0.13493505
22	0x380f3a6a	3.414826e-05
23	0xbe1bcdc4	-0.15215212
24	0xbdaf0042	-0.08544971
25	0xbe029673	-0.12752704
26	0xbd1f2501	-0.03885365
27	0xbd99248f	-0.07477676
28	0xbc9d245e	-0.01918238
29	0xbdda56b2	-0.10661067
30	0xbd1d0161	-0.038331393
31	0x3dcb6019	0.099304385
32	0x3d0aadfb	0.033857327
33	0xbd555758	-0.05208525
34	0xbd07e81e	-0.03318035
35	0xbda61d99	-0.08111114
36	0xbc8f0ae1	-0.017461242
37	0x3d76a9a4	0.060220376
38	0x3c551a3e	0.013006745
39	0xbdee5ae7	-0.11638432
40	0xbd6ecc40	-0.058300257
41	0xbd0f8508	-0.035038978
42	0x3cc081fc	0.023499481
43	0xbbcefc1a	-0.006316674
44	0xbe0049a9	-0.12528099
45	0xbcb15ec8	-0.02165164
46	0xbc76ac87	-0.015055782
47	0xbd6183c1	-0.05505729
48	0xbd10116b	-0.03517286
49	0x3e011b28	0.12608016
50	0xbdd745b6	-0.10511343
51	0xbd80799b	-0.062731944
52	0x3d416c9a	0.04722271
53	0xbdae2e24	-0.085048944
54	0x3debb82b	0.115097366
55	0x3d9ce106	0.07660107
56	0x3c8b1c32	0.016981218
57	0x3bbff9be	0.005858629
58	0x3dd83786	0.10557465
59	0xbdc115ca	-0.09427984
60	0xbc16ef25	-0.00921229
61	0xbd19ccfc	-0.037549004
62	0x3bf529c3	0.007481785
63	0xbd1f2c4a	-0.038860597
64	0xbc55e74c	-0.013055634
65	0xbd136246	-0.035982393
66	0xbcf31f4a	-0.029678006
67	0x3c9bcfa3	0.019019907
68	0x3d858172	0.0651883
69	0xbe05856d	-0.13039179
70	0xbcd934c6	-0.026514422
71	0xbbce656a	-0.0062987106
72	0xbdbb86c2	-0.091565624
73	0xbd7b3c59	-0.06133685
74	0xbdd6c5ec	-0.10486969
75	0x3d68ca7f	0.05683374
76	0xbc11dfba	-0.008903438
77	0xbcd10034	-0.025512792
78	0xbd27963e	-0.040914766
79	0x3d1c65ff	0.03818321
80	0xbdb041c0	-0.08606291
81	0x3cba26bb	0.022723546
82	0x3c29ba48	0.010359354
83	0xbd4fa460	-0.05069387
84	0x3db90623	0.090343736
85	0xbd1d4830	-0.03839892
86	0xbd227a8b	-0.039667647
87	0x3d7cb07c	0.061691746
88	0xbd8998ca	-0.06718595
89	0xbe0f19c2	-0.1397467
90	0x3e14734e	0.1449711
91	0xbb931812	-0.0044889534
92	0xbca7da8f	-0.020489959
93	0x3db53e82	0.08849813
94	0x3bcc89cd	0.006242013
95	0xbd96a7b7	-0.07356208
96	0x3c0f7f50	0.008758381
97	0xbde9ecd0	-0.114221215
98	0xbcba509c	-0.022743516
99	0xbd3d8650	-0.04627067
100	0xbc9c97ac	-0.019115292
101	0xbc4a9bb4	-0.012366224
102	0x3ca779e7	0.02044387
103	0x3b1db68a	0.00240651
104	0xbc9b7969	-0.018978791
105	0xbd37e3ba	-0.04489491
106	0xbb82801a	-0.003982556
107	0xb9ca08a2	-0.00038534874
108	0xb8acb856	-8.2359344e-05
109	0x3c982cbd	0.01857602
110	0xbd995568	-0.07486993
111	0xbd210a5c	-0.03931652
112	0xb9cbc167	-0.00038863273
113	0xbdb4928b	-0.08817013
114	0x3d01d424	0.031696454
115	0x3cc07a4a	0.023495812
116	0xbe1cfdd5	-0.15331204
117	0xbc1b561e	-0.009480981
118	0x3b09f120	0.0021048263
119	0xbc774e0f	-0.015094294
120	0xbcc48900	-0.023991108
121	0xbcdd9328	-0.027047709
122	0x3cf02626	0.029315066
123	0xbcfdf6e3	-0.031001514
124	0xbcfa8f44	-0.030585892
125	0xbc964e96	-0.01834802
126	0x3d8cbf43	0.06872418
127	0x3d15dc2e	0.036586933
128	0x3d00a687	0.031408813
129	0xbd62c128	-0.05535999
130	0x3da0d31c	0.07852766
131	0x3cb6734a	0.022271771
132	0xbd6ffea2	-0.058592446
133	0xbc66827e	-0.014069198
134	0xbbf1f30b	-0.0073837093
135	0x3da5412b	0.080690704
136	0x3c8baedc	0.017051153
137	0xbd452659	-0.048132274
138	0x3cf3d36f	0.029763905
139	0xb724bdb8	-9.819334e-06
140	0xbd1e29e9	-0.038614187
141	0x3e17231a	0.14759484
142	0xbd97a9ba	-0.0740542
143	0xbd88239d	-0.06647418
144	0x3db70254	0.08935991
145	0x3d28b4a9	0.041187916
146	0x3da21922	0.0791495
147	0x3d32359b	0.043508153
148	0xbce589e1	-0.028019847
149	0x3d5a26ef	0.053259786
150	0x3dbbc179	0.09167761
151	0xbcb4da62	-0.02207679
152	0xbddbb1c3	-0.10727265
153	0x3e16d682	0.14730266
154	0x3d6676a0	0.056265473
155	0x3d3bda02	0.045862205
156	0x3da83dc6	0.08214907
157	0xbd0b9766	-0.03407993
158	0xbcd5f27e	-0.026116606
159	0xbcb25bb1	-0.021772237
160	0xbc95fb80	-0.018308401
161	0xbdc25245	-0.09488348
162	0x3bbc5d42	0.005748422
163	0xbb72e62e	-0.0037063467
164	0x3d31250a	0.043248214
165	0x3ca98296	0.020692151
166	0xbda562ab	-0.0807546
167	0xbd113e7a	-0.035459973
168	0xbd46af07	-0.048506763
169	0xbcc7a0ee	-0.02436873
170	0xbd9a2f5d	-0.07528565
171	0xbca0c20a	-0.019623775
172	0xbdce572f	-0.10075223
173	0xbd9631a8	-0.0733369
174	0x3db36860	0.08760142
175	0xbd4de24b	-0.050264638
176	0xbb115987	-0.0022178607
177	0x3d3edfd5	0.04660018
178	0xbc9dcd90	-0.019263059
179	0x3d7f00ca	0.062256612
180	0x3de049da	0.10951586
181	0x3dc1a452	0.0945517
182	0xbdc24b37	-0.09487002
183	0x3d289597	0.041158285
184	0x3cdf905e	0.02729052
185	0xbd16fe52	-0.036863633
186	0x3bef8ba1	0.0073103462
187	0xbc9e1a50	-0.019299656
188	0xbd689cb3	-0.056790065
189	0x3c0a8eae	0.008456869
190	0xbd8a0c67	-0.06740647
191	0x3d6fa31e	0.05850517
192	0x3dc0df77	0.094176225
193	0xbd1fa974	-0.038979962
194	0xbdb252a5	-0.087071694
195	0xbce1af90	-0.027549535
196	0xbda6e1fc	-0.08148572
197	0xbd57ddf6	-0.052701913
198	0x3cd883a3	0.026429957
199	0x3d64d90c	0.055871055
200	0x3d2fdbe0	0.0429343
201	0x3c925486	0.01786257
202	0xbca36e0c	-0.019949935
203	0x3d2cf77d	0.04222821
204	0xbdad3a3b	-0.08458372
205	0x3dae52f3	0.08511915
206	0x3db52a2d	0.08845935
207	0x3d94d550	0.07267249
208	0xbd0ad399	-0.0338932
209	0xbca8ecb5	-0.020620683
210	0xbdb4efcb	-0.088347994
211	0x3d5beb1c	0.053691015
212	0xbd57ec85	-0.052715797
213	0x3bc4e92b	0.006009241
214	0x3cb17219	0.021660851
215	0xbd7b16bd	-0.06130098
216	0x3c947110	0.018120319
217	0xbd6bfdb3	-0.057614993
218	0x3dac5553	0.08414712
219	0xbd40ed8a	-0.047101535
220	0xbe01a1f6	-0.1265944
221	0x3d4f9cea	0.050686754
222	0xbdba4325	-0.09094838
223	0xbda98838	-0.08277935
224	0x3db16103	0.08661082
225	0xbd12b8ee	-0.035820894
226	0xba511941	-0.00079764804
227	0x3d9b7ee6	0.07592563
228	0xbcf6331c	-0.030053668
229	0x3c8a0fff	0.01685333
230	0x3daa8511	0.08326162
231	0xbdaee591	-0.0853988
232	0xbca12b9c	-0.019674115
233	0x3ddf3ff1	0.10900868
234	0xbd346a14	-0.044046476
235	0x3c39c721	0.01133898
236	0xbe244a25	-0.16043909
237	0xbd053d39	-0.03252909
238	0xbd81ca01	-0.06337357
239	0xbd41d1a6	-0.047319077
240	0xbd6b65c0	-0.057470083
241	0x3c8b07e1	0.01697153
242	0xbd9c7957	-0.07640331
243	0x3c8575b4	0.016291477
244	0x3cb7e40d	0.02244761
245	0xbd7d518e	-0.061845355
246	0x3d742220	0.059602857
247	0xbca9b42d	-0.020715797
248	0xbd77884f	-0.06043273
249	0x3d4d8d73	0.050183725
250	0xbb80f894	-0.003935883
251	0xbccb96ea	-0.024852235
252	0xbbb414ca	-0.0054956423
253	0xbc6abd92	-0.014327424
254	0xbd4e0ba6	-0.050304078
255	0xbb98aabc	-0.004659025

conv3.bias f4 [128]
0	0x3ba6ea97	0.0050938833
1	0xbc9153c9	-0.017740147
2	0xbcbc8319	-0.023011731
3	0x3cd24f39	0.025672542
4	0xbd1d5520	-0.03841126
5	0x3be9177e	0.007113396
6	0xbc8ba8a9	-0.017048197
7	0xbd01eb3d	-0.03171848
8	0x3a9ae76b	0.0011818236
9	0xbbe12ebf	-0.0068720276
10	0xbce8a069	-0.028396802
11	0xbcfb79aa	-0.030697662
12	0xbd49340c	-0.0491219
13	0xbb42fb88	-0.0029751975
14	0xbcddfeac	-0.027098976
15	0xbcb622d2	-0.0222334
16	0xbd271f71	-0.04080147
17	0xbce8df01	-0.028426649
18	0x3d0923e2	0.033481486
19	0x3c1aaa3b	0.00944
20	0x3ccb710b	0.024834177
21	0xbc83ebf2	-0.016103718
22	0xbd147452	-0.036243744
23	0xbb092c43	-0.0020930923
24	0x3b1beae4	0.0023791129
25	0x3ced8146	0.028992306
26	0x3d1b6f9e	0.037948243
27	0xbc0ab0ce	-0.008465005
28	0x3c71abd2	0.014750438
29	0xbd1b5b05	-0.0379286
30	0xbd0929cd	-0.03348713
31	0x3d03b6d0	0.032156765
32	0x3d07ec50	0.03318435
33	0xbd1a77e8	-0.037712008
34	0x3c0640cf	0.0081941625
35	0xbd46dbb2	-0.04854936
36	0x3c2bd097	0.010486743
37	0xbc8dd4ce	-0.017313387
38	0x3d1183e5	0.035526175
39	0xbcb7468e	-0.02237251
40	0x3c5dabee	0.013529761
41	0x3cdf61d4	0.027268328
42	0xbb53c53c	-0.0032313606
43	0x3cebda8a	0.028790731
44	0xbcf0e03d	-0.0294038
45	0x3c9247d1	0.01785651
46	0x3d2649ac	0.040597603
47	0xbc7fee25	-0.015620743
48	0x3bbc53a2	0.0057472745
49	0xbbcbfa37	-0.0062248963
50	0xbc02e33e	-0.007988749
51	0xbd0e87d9	-0.034797523
52	0xbd4e0046	-0.05029323
53	0x3ad8a209	0.0016527782
54	0xbcdea0db	-0.027176311
55	0xbcf0df62	-0.029403392
56	0xbbfc6ac2	-0.007703156
57	0xbb312af8	-0.0027033668
58	0xbc8d5117	-0.01725058
59	0xbcbc8334	-0.023011781
60	0x3c6a4486	0.014298564
61	0xbcc1791b	-0.023617318
62	0x3cd9b702	0.026576523
63	0xbb80e1fe	-0.0039331904
64	0x3c548043	0.012970033
65	0xbd1b78f8	-0.03795716
66	0x3cd82aeb	0.026387652
67	0xbcba17c5	-0.022716412
68	0x3c5d9018	0.013523124
69	0xbc247f8a	-0.010040173
70	0xbc4d6381	-0.012535931
71	0x3c85b16b	0.016319951
72	0xbcae1593	-0.021250522
73	0xbcdbdc61	-0.026838483
74	0x3cfb960a	0.030711193
75	0xba68f2b3	-0.00088862627
76	0xbca897e3	-0.020580238
77	0x3c0d0591	0.008607284
78	0x3bab1079	0.0052204696
79	0x3b4d622d	0.0031339035
80	0xbd122196	-0.03567656
81	0x3d2e26d3	0.042517494
82	0xbb390e41	-0.0028237256
83	0x3ce87067	0.02837391
84	0x3cca5d1d	0.024702603
85	0xbca77ad7	-0.020444317
86	0x3c8979a9	0.016781645
87	0xbd25e49e	-0.04050123
88	0xbb9b086a	-0.0047312276
89	0x3c99f51d	0.018793637
90	0x3bea3915	0.007147918
91	0xbd3ae90f	-0.04563242
92	0x3cae9699	0.021312045
93	0xbca71661	-0.020396413
94	0xbd31d8df	-0.043419715
95	0xbc3dbb1b	-0.011580254
96	0x3d17bce3	0.03704537
97	0xbc39428d	-0.011307371
98	0x3c80dc29	0.01572998
99	0xbc6bc826	-0.014390981
100	0x3c7d6f7a	0.015468473
101	0x3a3c522f	0.0007183877
102	0x3c4265fa	0.011865133
103	0xbd0a3925	-0.033745904
104	0xbc4522f7	-0.012032262
105	0xbcaed172	-0.021340106
106	0xbca10c8a	-0.0196593
107	0xbd0d22cb	-0.03445701
108	0x3c7a775a	0.015287245
109	0xbb650029	-0.0034942722
110	0x3d168a95	0.036753256
111	0x3c703e64	0.014663313
112	0xbcf39d9b	-0.029738238
113	0x3d0dc06e	0.034607343
114	0xb9843be7	-0.00025221633
115	0x3cf379c5	0.02972115
116	0x3c6cefb9	0.014461451
117	0xbcf628a8	-0.030048683
118	0x3ccaeda0	0.024771512
119	0x3ce75ea1	0.028243365
120	0x3b942367	0.004520822
121	0xbc8ce630	-0.017199606
122	0xbd32491c	-0.043526754
123	0x3cbd4e5b	0.023108652
124	0x3d143344	0.036181703
125	0xbca5fbf3	-0.02026174
126	0xbcb23e9a	-0.021758366
127	0xbce41b78	-0.02784513

bn3.weight f4 [128]
0	0x3f8032d8	1.0015516
1	0x3f8075ee	1.0035989
2	0x3f88d24a	1.0689175
3	0x3f8aa7fd	1.0832516
4	0x3f85437d	1.0411221
5	0x3f7e0521	0.99226576
6	0x3f8f471d	1.1193577
7	0x3f887906	1.0661933
8	0x3f85fd4d	1.0467926
9	0x3f9125c7	1.1339654
10	0x3f71508f	0.9426355
11	0x3f8970b8	1.0737524
12	0x3f8d24dc	1.1026874
13	0x3f8f9510	1.1217365
14	0x3f8da392	1.1065543
15	0x3f831075	1.0239397
16	0x3f97105b	1.1801866
17	0x3f8348ad	1.0256554
18	0x3f812300	1.0088806
19	0x3f839e22	1.0282633
20	0x3f899bae	1.0750635
21	0x3f880184	1.0625463
22	0x3f686556	0.90779626
23	0x3f9f0a3d	1.2425
24	0x3f80f7db	1.007564
25	0x3f8fe4cf	1.1241702
26	0x3f8a157d	1.0787808
27	0x3f8783df	1.0587119
28	0x3f8d2c37	1.1029118
29	0x3f7a6c95	0.97821933
30	0x3f826442	1.0186846
31	0x3f78c8e9	0.97181565
32	0x3f7dadc2	0.9909326
33	0x3f8c4209	1.0957652
34	0x3f85ca78	1.0452414
35	0x3f88767a	1.0661156
36	0x3f81fa00	1.0154419
37	0x3f71a3e0	0.9439068
38	0x3f923cfc	1.1424861
39	0x3f8ce3d2	1.1007025
40	0x3f85f57c	1.0465541
41	0x3f80c429	1.0059863
42	0x3f9423f8	1.1573477
43	0x3f8d48c4	1.1037831
44	0x3f810526	1.0079696
45	0x3f826ddc	1.0189776
46	0x3f86f06a	1.0542119
47	0x3f849f18	1.0361052
48	0x3f87bbc4	1.0604177
49	0x3f851fc9	1.0400325
50	0x3f80170b	1.0007032
51	0x3f8721b8	1.0557165
52	0x3f800811	1.0002462
53	0x3f8cbadf	1.0994529
54	0x3f8864f6	1.0655811
55	0x3f6fb24e	0.93631446
56	0x3f87e311	1.061617
57	0x3f7c0bb0	0.98455334
58	0x3f8d5697	1.104205
59	0x3fa23f1b	1.2675508
60	0x3f8590f8	1.0434866
61	0x3f8aad49	1.0834132
62	0x3f70a813	0.9400646
63	0x3f899efd	1.0751644
64	0x3f8fc3cd	1.1231629
65	0x3f74e01d	0.9565447
66	0x3f89bb28	1.076024
67	0x3f76b6a0	0.96372414
68	0x3f7f8ce4	0.9982436
69	0x3f6b84ac	0.91999316
70	0x3f79baea	0.97550833
71	0x3f8cd6d8	1.1003065
72	0x3f8cd782	1.1003268
73	0x3f87ef60	1.0619926
74	0x3f9c2f5f	1.2201957
75	0x3f947cbc	1.1600566
76	0x3f8723f6	1.055785
77	0x3f8ea976	1.1145465
78	0x3f945263	1.1587642
79	0x3f897736	1.0739505
80	0x3f82d9ae	1.022268
81	0x3f839b86	1.0281837
82	0x3f87e23e	1.0615919
83	0x3f85493c	1.0412974
84	0x3f90e451	1.1319677
85	0x3f8d3a04	1.103333
86	0x3f861b32	1.0477049
87	0x3f756e76	0.95871675
88	0x3f80589a	1.0027039
89	0x3f81839a	1.0118287
90	0x3f8c9af3	1.0984787
91	0x3f96eba8	1.1790667
92	0x3f8d7fe1	1.105465
93	0x3f8d7f4a	1.105447
94	0x3f8234d4	1.0172372
95	0x3f8c22b2	1.0948088
96	0x3f8ac8f1	1.0842572
97	0x3f803a3c	1.0017772
98	0x3f86ccf9	1.0531303
99	0x3f8f70f2	1.1206343
100	0x3f84c6d1	1.0373174
101	0x3f80b261	1.0054437
102	0x3f8ea504	1.1144109
103	0x3f8f590a	1.1199048
104	0x3f8b1550	1.0865879
105	0x3f850afb	1.0393976
106	0x3f8fe6ff	1.124237
107	0x3f88cd92	1.0687735
108	0x3f8c6d48	1.097085
109	0x3f7e61b9	0.9936786
110	0x3f84f331	1.0386716
111	0x3f7730bf	0.96558756
112	0x3f88387d	1.0642239
113	0x3f85045e	1.0391958
114	0x3f8c878d	1.0978867
115	0x3f8a3d8a	1.080003
116	0x3f7cb3ee	0.9871205
117	0x3f91e06e	1.1396616
118	0x3f81f4fd	1.015289
119	0x3f962043	1.1728595
120	0x3f7af5bf	0.9803123
121	0x3f7e5854	0.9935353
122	0x3f8bd5be	1.0924604
123	0x3f875ed4	1.0575814
124	0x3f70c572	0.9405128
125	0x3f72028d	0.9453514
126	0x3f844988	1.033494
127	0x3f8e5320	1.1119118

bn3.bias f4 [128]
0	0xbe62d285	-0.2215062
1	0xbe6d3113	-0.23163252
2	0xbe9a2315	-0.3010489
3	0xbe810f9d	-0.25207224
4	0xbeae71ea	-0.34071285
5	0xbe9bde93	-0.30443248
6	0xbecb0ad7	-0.39656708
7	0xbebfa609	-0.37431362
8	0xbeb6694f	-0.3562722
9	0xbe90040e	-0.28128093
10	0xbe8c39a5	-0.2738773
11	0xbe6fbf0c	-0.23412722
12	0xbe619c2d	-0.22032233
13	0xbe8c5ae4	-0.27413094
14	0xbe16820f	-0.14698051
15	0xbeac72dd	-0.33681384
16	0xbe7ce909	-0.24698271
17	0xbea023cd	-0.31277314
18	0xbe8d8930	-0.27643728
19	0xbe30c8e4	-0.17264134
20	0xbeab9b45	-0.335169
21	0xbe23662d	-0.15956946
22	0xbe7b6ef9	-0.24554051
23	0xbe9be9aa	-0.3045171
24	0xbebc2451	-0.36746457
25	0xbe87ce67	-0.2652466
26	0xbe885666	-0.26628417
27	0xbe80ed13	-0.25180873
28	0xbec1cc18	-0.37851024
29	0xbe60c779	-0.21951093
30	0xbe9556d0	-0.29167795
31	0xbe8842b9	-0.26613405
32	0xbea1a43c	-0.31570613
33	0xbe87eab0	-0.2654624
34	0xbe8d87a0	-0.27642536
35	0xbe5d0c4c	-0.21586722
36	0xbe7d0c19	-0.24711646
37	0xbe5e2054	-0.2169202
38	0xbe7bb466	-0.24580535
39	0xbe9126a6	-0.283498
40	0xbe839688	-0.25700784
41	0xbe87dec5	-0.26537147
42	0xbe4b08de	-0.19827601
43	0xbef02468	-0.46902776
44	0xbe51143e	-0.20417878
45	0xbea40d90	-0.32041597
46	0xbe8fd028	-0.28088498
47	0xbe9f65ba	-0.311323
48	0xbe8f35d4	-0.27970755
49	0xbea239f8	-0.31684852
50	0xbe9c6c23	-0.30551252
51	0xbe910aeb	-0.28328642
52	0xbe62f985	-0.22165497
53	0xbe8fef6c	-0.28112352
54	0xbeac7d62	-0.3368941
55	0xbeb3521b	-0.3502358
56	0xbe8cf75b	-0.27532467
57	0xbe383ef6	-0.17992768
58	0xbe9a34f1	-0.30118516
59	0xbebcd77a	-0.36883146
60	0xbe915a26	-0.2838909
61	0xbe6771d9	-0.22602023
62	0xbe8d74b3	-0.27628097
63	0xbe9998e9	-0.29999474
64	0xbe089e67	-0.13341676
65	0xbeab93a7	-0.33511087
66	0xbe651ff2	-0.22375467
67	0xbeaa963c	-0.33317745
68	0xbe7c52aa	-0.24640909
69	0xbe8396ba	-0.25700933
70	0xbe89a4e5	-0.26883617
71	0xbe82e6fa	-0.25566846
72	0xbe4452c2	-0.19172195
73	0xbe90052d	-0.2812895
74	0xbe50ed64	-0.20403057
75	0xbea543a7	-0.32278177
76	0xbdf8981a	-0.12138386
77	0xbeb383dc	-0.35061538
78	0xbe9487f2	-0.29009968
79	0xbe9b9370	-0.30385923
80	0xbe7d4d77	-0.24736582
81	0xbea8888b	-0.32916674
82	0xbea5c2b6	-0.32375115
83	0xbe823e99	-0.25438383
84	0xbeaeab0b	-0.3411487
85	0xbeb09912	-0.34491783
86	0xbe4950d3	-0.19659738
87	0xbeb5c84d	-0.3550438
88	0xbe4844ed	-0.19557543
89	0xbeb0e34b	-0.3454841
90	0xbe99dc51	-0.300509
91	0xbe51b0d0	-0.20477605
92	0xbeb0e1c9	-0.3454726
93	0xbea8ac7e	-0.329441
94	0xbec22a91	-0.379231
95	0xbe878134	-0.26465762
96	0xbe8789ce	-0.26472324
97	0xbe6eced6	-0.23321089
98	0xbe730677	-0.23732935
99	0xbeb0f6bf	-0.34563252
100	0xbe8de9a5	-0.2771732
101	0xbe857caa	-0.26071674
102	0xbe93e93a	-0.28888875
103	0xbe748025	-0.23877008
104	0xbe83c54d	-0.25736466
105	0xbeb7535c	-0.35805786
106	0xbeae8ed5	-0.34093347
107	0xbe817e90	-0.25291872
108	0xbe4f28b4	-0.20230371
109	0xbe951896	-0.2912032
110	0xbe8686e4	-0.26274788
111	0xbe98f6d1	-0.29875806
112	0xbe49e0a4	-0.197146
113	0xbe14719a	-0.1449646
114	0xbe0ecbf2	-0.13944986
115	0xbecc8847	-0.3994772
116	0xbe8d3700	-0.27581024
117	0xbec382f3	-0.38185844
118	0xbefe8941	-0.4971409
119	0xbec44d41	-0.3834019
120	0xbe66dfc6	-0.225463
121	0xbe968482	-0.2939797
122	0xbe2eafc5	-0.17059238
123	0xbe988c80	-0.29794693
124	0xbe917ee6	-0.28417128
125	0xbea960c5	-0.33081642
126	0xbe92b12d	-0.286508
127	0xbe09f6fb	-0.13473122

bn3.running_mean f4 [128]
0	0xc0697898	-3.6479855
1	0xc06a0652	-3.6566358
2	0xbfb9622a	-1.4483082
3	0x3fa3b98a	1.2790997
4	0xc0776765	-3.8656857
5	0xc0687ba6	-3.632547
6	0xc03eb9ca	-2.9800897
7	0xc03074c1	-2.757126
8	0xbfd20e35	-1.6410586
9	0xc04ecf99	-3.2314208
10	0xbfc9db6d	-1.5770088
11	0xbedb869d	-0.4287614
12	0xbe41b39d	-0.18916173
13	0xc03b7797	-2.9291742
14	0xc068b6b5	-3.6361516
15	0xbeda96e8	-0.42693257
16	0xbfa5332a	-1.2906239
17	0xc03f1203	-2.9854743
18	0xbf613b13	-0.87980765
19	0xc097e786	-4.747012
20	0xc05f2857	-3.4868371
21	0xc046fbe9	-3.1091254
22	0xc0851aca	-4.15952
23	0x3f4d3280	0.8015518
24	0xc08397f9	-4.1123013
25	0xc00e4202	-2.2227788
26	0xbff72dd2	-1.9310858
27	0xbfc5f688	-1.546586
28	0xc0354711	-2.8324625
29	0xc08c476f	-4.38372
30	0x3dffce84	0.124905616
31	0xc002f864	-2.0464106
32	0xc0749e45	-3.82216
33	0xbf9cb339	-1.2242194
34	0xc01603b3	-2.3439758
35	0xc0173f32	-2.3632321
36	0xbfe2a0f3	-1.7705368
37	0xc02a7b62	-2.6637807
38	0xbf23f850	-0.6405077
39	0xc05a5230	-3.4112663
40	0x3e8006a6	0.25005072
41	0xc027392a	-2.612864
42	0xc0458ff3	-3.086911
43	0xc001692a	-2.0220437
44	0xc029e91a	-2.6548524
45	0xc0219f8d	-2.5253632
46	0xbfafdd6b	-1.3739446
47	0xc02972b5	-2.6476262
48	0x3d0e85b2	0.03479547
49	0xc05b683b	-3.4282367
50	0xc065ab50	-3.588581
51	0xbf9df45c	-1.2340198
52	0xbfdf4139	-1.7441779
53	0xbf877e39	-1.0585395
54	0xc06647bb	-3.598128
55	0xc028df52	-2.6386304
56	0x3f4ea1c3	0.8071558
57	0xc09dc29f	-4.9300075
58	0xbf424759	-0.7589012
59	0xbf125d8c	-0.5717399
60	0xc021b473	-2.5266387
61	0xc014474c	-2.3168516
62	0xbfbe74d0	-1.4879398
63	0xc02b6c6c	-2.6784925
64	0xc0951e8a	-4.659978
65	0xc0447b79	-3.0700362
66	0xc08678ac	-4.2022305
67	0xc05e740c	-3.475833
68	0xc019e896	-2.404821
69	0xbff087da	-1.8791459
70	0xbfb25cde	-1.3934591
71	0xc02051fc	-2.505004
72	0xc00bbdd0	-2.1834602
73	0xbe927804	-0.2860719
74	0xbfb00104	-1.375031
75	0xbf4137e4	-0.7547591
76	0xc07014a8	-3.7512608
77	0xbffbe0cb	-1.9677976
78	0xbfa0a02e	-1.2548883
79	0xc0499270	-3.1495628
80	0xbf82ffea	-1.0234349
81	0xc05e4daa	-3.4734902
82	0xc08dfab0	-4.4368515
83	0xbd27d1a9	-0.040971432
84	0xc025a08f	-2.5879247
85	0xc03c5db6	-2.9432197
86	0xc016eed7	-2.3583276
87	0xc025e2c3	-2.5919654
88	0xbf8a6d92	-1.0814688
89	0xc06dc00b	-3.7148464
90	0xc084ca24	-4.1496754
91	0x3ea8856e	0.329143
92	0xc03b3162	-2.924889
93	0xbfe84c19	-1.8148223
94	0xc0187be1	-2.382561
95	0xbeed892a	-0.4639371
96	0xc079d78b	-3.9037807
97	0xbfa9dfc1	-1.3271409
98	0xc0502cd3	-3.2527359
99	0xc04f0604	-3.2347422
100	0xc085ba37	-4.1789813
101	0xc0967efb	-4.7030005
102	0xc07cc741	-3.9496615
103	0xc057fc4b	-3.3747737
104	0xbeb43af9	-0.35201243
105	0xbff0efeb	-1.8823217
106	0x3d0682ea	0.032839693
107	0x3f1a0cc4	0.6017573
108	0xbfc53d5e	-1.5409353
109	0xc0124bd1	-2.2858775
110	0xbfcd632f	-1.6045893
111	0xc025c923	-2.5904014
112	0xc00d5906	-2.2085586
113	0xc06c207e	-3.6894832
114	0xc08c7077	-4.3887286
115	0xc0496dd0	-3.1473274
116	0xbfefaed3	-1.8725227
117	0xbf342c26	-0.70379865
118	0xbfe2e14d	-1.7725006
119	0xc055b222	-3.3389974
120	0xc0635d9d	-3.5525887
121	0xbfa39714	-1.278048
122	0xbfd212cf	-1.641199
123	0xc02f1a34	-2.7359743
124	0xc0842501	-4.129517
125	0xbec3de52	-0.38255554
126	0xbf8a3909	-1.0798656
127	0xc01dfd9a	-2.4686036

bn3.running_var f4 [128]
0	0x40d0739e	6.5141134
1	0x40e84630	7.258568
2	0x40e17d9e	7.046584
3	0x406aeb40	3.6706085
4	0x409bc6ec	4.8680325
5	0x40f343da	7.6020327
6	0x40ab46e8	5.3524055
7	0x409ad4e0	4.8384857
8	0x4078e8f3	3.889218
9	0x405ce3c0	3.4514008
10	0x408ce6cb	4.403173
11	0x408bc33b	4.367582
12	0x404cf61c	3.2025213
13	0x40a0658b	5.0123954
14	0x40e2d1fd	7.0881333
15	0x40911b03	4.5345473
16	0x4076fb62	3.8590932
17	0x40a92241	5.2854314
18	0x40c4d3ca	6.150853
19	0x4112afed	9.167951
20	0x40a1f7e7	5.0615115
21	0x40f9ded7	7.808452
22	0x40c3369f	6.1004176
23	0x40b10160	5.531418
24	0x4081e647	4.05936
25	0x40865505	4.1978784
26	0x40835210	4.1037674
27	0x406c2283	3.6896064
28	0x40a7c511	5.242806
29	0x4135adfa	11.354975
30	0x406d08ae	3.7036548
31	0x40e5212c	7.1602993
32	0x40b0d1ea	5.5256243
33	0x406689cf	3.6021612
34	0x40a4cdc4	5.150118
35	0x4044892b	3.070872
36	0x40f669ac	7.7003994
37	0x40b4dddc	5.6520824
38	0x40abbb34	5.366602
39	0x40791dbb	3.8924396
40	0x40a48d14	5.1422215
41	0x40a99926	5.299945
42	0x410731b3	8.449634
43	0x4096dbdf	4.7143397
44	0x409461ce	4.636939
45	0x40a2fb6e	5.093192
46	0x40797745	3.8979046
47	0x40b23f0a	5.570195
48	0x40b9e6be	5.809417
49	0x40a05794	5.0106907
50	0x409fcbcc	4.9936275
51	0x407b4dad	3.926616
52	0x40b844ac	5.758383
53	0x4085475a	4.16496
54	0x40ad84eb	5.4224753
55	0x409f0343	4.969148
56	0x4083f41b	4.123548
57	0x40e498d2	7.143655
58	0x40c339e2	6.100816
59	0x40afd030	5.4941635
60	0x407a36ac	3.909587
61	0x4040077a	3.0004563
62	0x4098fbc5	4.7807336
63	0x40b4ea6d	5.6536164
64	0x413826c5	11.509465
65	0x409c5954	4.8859043
66	0x40984a3b	4.7590613
67	0x40ae1666	5.440234
68	0x40bb9097	5.8614
69	0x408a0432	4.313012
70	0x40a0b94c	5.0226192
71	0x40ae5de9	5.4489636
72	0x409d3813	4.913095
73	0x40b1b481	5.553284
74	0x40b1564e	5.5417852
75	0x40940aec	4.626333
76	0x41025f86	8.148321
77	0x40a98be2	5.2983255
78	0x409e95cd	4.955786
79	0x40d86321	6.7621007
80	0x409119d4	4.534403
81	0x4086cc0d	4.2124085
82	0x40d1185d	6.534224
83	0x40501cae	3.2517505
84	0x40bf2e18	5.9743767
85	0x40beaf56	5.9589033
86	0x40aea3d9	5.457501
87	0x40ee86d1	7.453957
88	0x408d8197	4.422069
89	0x4062df29	3.5448706
90	0x408498aa	4.1436357
91	0x40b68210	5.703377
92	0x4091625e	4.5432577
93	0x405d0fcd	3.4540894
94	0x40a32107	5.0977817
95	0x406d9bca	3.7126336
96	0x4072c311	3.793156
97	0x4086d1b0	4.2130966
98	0x40daa7ce	6.832984
99	0x40acd309	5.400761
100	0x40a89652	5.2683496
101	0x40d7de85	6.745913
102	0x4067ba22	3.6207356
103	0x409e26a0	4.942215
104	0x4094b86c	4.6475124
105	0x40442623	3.0648277
106	0x408855ad	4.2604585
107	0x40b625b6	5.6921034
108	0x40ab8d38	5.3609886
109	0x408dc0c3	4.4297805
110	0x40cfba7f	6.4915156
111	0x40c47aff	6.140014
112	0x4093ae7f	4.615051
113	0x412a7ea1	10.655915
114	0x411b6b23	9.713656
115	0x409346c4	4.6023884
116	0x40bf39d6	5.97581
117	0x4095fea0	4.687332
118	0x406d789a	3.710486
119	0x40c7f879	6.249081
120	0x40ce80c2	6.4532175
121	0x40997ba3	4.7963424
122	0x40df5001	6.978516
123	0x40e7824b	7.234655
124	0x40a0d626	5.026141
125	0x4082b608	4.0847206
126	0x4099b433	4.803247
127	0x40dd1610	6.908943
