checkpoints/cnn_3layers_RMSprop_best.pth (torch, 978407 bytes, 22 tensors)

conv1.weight f4 [32, 1, 3, 3]
0.059344977 0.09685908 0.30019438 0.109260775 -0.017455408 0.09006038 -0.2242844 -0.24016741
-0.37621334 0.070317164 -0.29285154 -0.10913241 0.12287984 -0.016648669 -0.28874835 0.24872005
0.23206916 0.026989192 -0.36710712 -0.23816626 0.33484164 0.1650877 -0.13100305 0.11178979
-0.25970984 -0.056834515 -0.079321 -0.019772353 -0.39129472 -0.28581938 0.2911875 0.15751337
0.17311713 -0.031109368 0.15179002 -0.018941963 0.17099136 -0.023926716 0.12476485 -0.32739457
0.15590991 0.31794044 0.011509104 -0.40662643 -0.27051717 0.15964063 0.1768898 0.033434883
0.24147718 0.10513257 -0.3015838 -0.030567179 -0.2058448 -0.39830038 -0.21273461 -0.14313784
0.28904015 -0.17543055 -0.20696871 0.23194522 -0.022110922 -0.21232988 -0.16355507 -0.24920484
-0.07355297 -0.07926133 0.11088384 0.2042506 0.16865665 -0.034939934 0.07030374 -0.29957104
0.14224197 0.064292125 -0.24000584 0.16228046 0.011885445 -0.22164556 5.736208e-05 0.19722407
-0.19057536 -0.25538653 0.09278896 -0.13535866 0.025112776 0.27861568 0.06345856 -0.36232224
0.13280107 -0.0875056 0.011383696 0.23976064 -0.26457855 0.18612546 -0.076104544 -0.15213762
0.09044593 -0.13703503 -0.17253113 0.2700791 0.019691113 -0.21997821 0.2316752 -0.31861466
-0.04308651 -0.34292862 -0.08519994 -0.09547525 0.04917773 -0.04721725 0.19005351 0.10210927
-0.2522399 0.17764816 0.028545907 -0.1835926 0.092920676 0.035691954 0.045657575 0.205979
-0.21803965 -0.12573172 -0.13070135 0.007379188 0.025216945 -0.15041378 -0.26298806 -0.2417382
-0.1498538 0.07473176 -0.32053724 0.32352263 -0.021601582 -0.36167514 0.24953444 0.19678716
-0.013466365 -0.0102183735 0.27244475 -0.13352522 -0.102613166 0.36232597 0.0230853 -0.074552946
-0.042589426 -0.12407528 -0.23589306 -0.1541338 -0.23449673 -0.16892222 0.1614394 0.29233614
0.012762103 -0.2644143 -0.15095466 0.2781093 -0.044965584 -0.075061806 0.042571343 0.1993064
0.08091106 -0.4264259 -0.16618396 -0.21126366 0.23263438 0.0249854 0.1912709 0.10609655
0.12654144 0.15954769 -0.47715303 0.056083098 -0.31158572 0.21148585 0.25010502 -0.31272757
-0.1324001 0.18403557 0.0069092037 0.047972806 0.30184034 0.15219003 -0.17528489 -0.34984908
-0.2673471 -0.09467846 0.05649698 0.096763805 0.2932985 -0.25527647 -0.29349717 -0.10752173
0.003975605 0.021523684 0.2852415 0.030812657 0.2017978 0.061762415 -0.2789338 0.30333802
-0.09164317 0.0074490327 -0.06577769 0.29990435 -0.19786474 -0.22016355 -0.33897337 -0.34759736
-0.02184769 0.23530388 -0.21127228 0.225201 0.11038773 0.06276202 0.13634358 0.048154354
0.26517233 0.29263055 0.32063535 0.1775185 -0.09613024 -0.10427648 0.32367766 0.28541183
0.11583914 -0.3590173 0.15034431 0.119984865 -0.19350015 0.0976261 0.006281892 -0.34618622
-0.055856727 0.19814442 0.21639816 0.29762006 0.30957353 -0.11653584 0.05221815 -0.2760221
-0.43538156 -0.20683202 0.17082508 0.09389299 -0.17668425 -0.35279065 -0.16713887 0.2795471
0.2611681 0.16548307 -0.2262909 -0.12919147 -0.34028473 -0.24616142 0.09187082 -0.010862095
00000000: b813 733d 0e5e c63d 14b3 993e 1dc4 df3d
00000010: a5fe 8ebc 9471 b83d cfaa 65be 72ee 75be
00000020: 099f c0be 7202 903d a3f0 95be d080 dfbd
00000030: 6da8 fb3d ca62 88bc d3d6 93be 78b0 7e3e
00000040: 8aa3 6d3e 7018 dd3c 77f5 bbbe dbe1 73be
00000050: 5d70 ab3e c00c 293e aa25 06be 0cf2 e43d
00000060: b0f8 84be 4fcb 68bd 0c73 a2bd a1f9 a1bc
00000070: c857 c8be eb56 92be 8716 953e 2f4b 213e
00000080: 9e45 313e 13d9 febc d86e 1b3e 2d2c 9bbc
00000090: 5c18 2f3e f601 c4bc b784 ff3d 43a0 a7be
000000a0: d9a6 1f3e 17c9 a23e ae90 3c3c 5731 d0be
000000b0: 3a81 8abe d578 233e 9a22 353e 04f3 083d
000000c0: cb45 773e bf4f d73d 3169 9abe 0568 fabc
000000d0: fbc8 52be 07ee cbbe 1ad7 59be ba92 12be
000000e0: 12fd 933e 11a4 33be 9bef 53be 0c83 6d3e
000000f0: f721 b5bc 016d 59be fb7a 27be 8e2f 7fbe
00000100: f1a2 96bd c453 a2bd 1117 e33d 1227 513e
00000110: 54b4 2c3e 2d1d 0fbd 68fb 8f3d 6061 99be
00000120: e1a7 113e 97ab 833d 17c4 75be d92c 263e
00000130: 2bbb 423c 0ef7 62be 1098 7038 1bf5 493e
00000140: 3026 43be 06c2 82be 2308 be3d 769b 0abe
00000150: 4fb9 cd3c b7a6 8e3e 90f6 813d 4d82 b9be
00000160: 01fd 073e 2336 b3bd af82 3a3c d083 753e
00000170: d776 87be ac97 3e3e b3dc 9bbd f7c9 1bbe
00000180: b73b b93d e952 0cbe 00ac 30be cf47 8a3e
00000190: 424f a13c f841 61be 433c 6d3e 7621 a3be
000001a0: 7b7b 30bd 5794 afbe 4e7d aebd 8788 c3bd
000001b0: 966e 493d e066 41bd 639d 423e aa1e d13d
000001c0: 9725 81be 66e9 353e 1bd9 e93c b3ff 3bbe
000001d0: 324d be3d ba31 123d 7003 3b3d 29ec 523e
000001e0: c945 5fbe d1bf 00be 93d6 05be 1ecd f13b
000001f0: c493 ce3c 1206 1abe 5fa6 86be 388a 77be
00000200: 4673 19be f70c 993d 751d a4be c2a4 a53e
00000210: cdf5 b0bc 7c2d b9be f585 7f3e 9382 493e
00000220: 07a2 5cbc f76a 27bc e17d 8b3e d6ba 08be
00000230: da26 d2bd ca82 b93e 621d bd3c 37af 98bd
00000240: 4072 2ebd 2e1b febd f38d 71be 40d5 1dbe
00000250: e91f 70be f2f9 2cbe 5f50 253e 15ad 953e
00000260: 2418 513c 5061 87be dc93 1abe 5864 8e3e
00000270: d52d 38bd 01ba 99bd 4a5f 2e3d fa16 4c3e
00000280: b3b4 a53d 7f54 dabe 212c 2abe 8055 58be
00000290: b537 6e3e 2eae cc3c 85dc 433e 2649 d93d
000002a0: 1494 013e 7860 233e 674d f4be 64b7 653d
000002b0: 2a88 9fbe bf8f 583e c40d 803e d41d a0be
000002c0: e493 07be d273 3c3e 9a66 e23b 227f 443d
000002d0: d18a 9a3e b4d7 1b3e e27d 33be 6b1f b3be
000002e0: b8e1 88be c8e6 c1bd 6169 673d 1a2c c63d
000002f0: 392b 963e 99b3 82be 4345 96be 5a34 dcbd
00000300: cb45 823b 7052 b03c 2d0b 923e d36a fc3c
00000310: 15a4 4e3e 96fa 7c3d 69d0 8ebe 1f4f 9b3e
00000320: 6aaf bbbd 0417 f43b 74b6 86bd 108d 993e
00000330: 0e9d 4abe 8e72 61be eb8d adbe 48f8 b1be
00000340: edf9 b2bc 80f3 703e c357 58be 179b 663e
00000350: f612 e23d 6089 803d a79d 0b3e 803d 453d
00000360: abc4 873e acd3 953e 512a a43e 69c7 353e
00000370: eedf c4bd e88e d5bd 14b9 a53e 8021 923e
00000380: 123d ed3d 1ed1 b7be dcf3 193e a0ba f53d
00000390: e724 46be 31f0 c73d 54d8 cd3b 523f b1be
000003a0: 06ca 64bd 5fe6 4a3e 7b97 5d3e a861 983e
000003b0: 6c80 9e3e 58aa eebd b3e2 553d c552 8dbe
000003c0: 55ea debe c6cb 53be c5ec 2e3e f84a c03d
000003d0: b7ec 34be faa0 b4be 7426 2bbe cc20 8f3e
000003e0: d3b7 853e 6574 293e cdb8 67be c54a 04be
000003f0: cd39 aebe bd11 7cbe c526 bc3d eef6 31bc

conv1.bias f4 [32]
0.21654594 0.05942103 -0.13473779 -0.169146 0.0009680956 -0.11908108 -0.1266451 0.08846052
0.36198243 0.29275712 0.04963709 -0.16196768 0.063497715 -0.0024453695 0.2631819 0.033542395
-0.38371795 0.15855612 -0.13762091 0.10514979 -0.14220455 0.40506315 -0.18107902 0.002938621
0.05816693 0.045795083 0.28280985 0.1993197 -0.23952426 -0.27342403 0.19421245 0.15332884
00000000: 38be 5d3e 7763 733d b4f8 09be 9c34 2dbe
00000010: ccc7 7d3a c8e0 f3bd 41af 01be ca2a b53d
00000020: c355 b93e 43e4 953e 4350 4b3d dbda 25be
00000030: 170b 823d 7e42 20bb c7bf 863e c063 093d
00000040: ae76 c4be 895c 223e 7fec 0cbe c658 d73d
00000050: 129e 11be 7064 cf3e c76c 39be e195 403b
00000060: 7240 6e3d a093 3b3d 74cc 903e 771a 4c3e
00000070: d945 75be 3cfe 8bbe a1df 463e 3c02 1d3e

bn1.weight f4 [32]
1.0019066 1.0762321 1.1115074 1.0069437 1.0413562 0.97331417 1.2517463 1.0786296
0.92800504 0.8781866 0.83968365 1.3158001 0.8619226 1.1637578 1.2441083 0.46585938
1.0257953 0.9953589 0.7116501 1.265218 1.0731128 0.9521228 1.283718 0.7212133
0.6839723 0.9449124 0.9654482 0.89588195 1.1354345 1.1738174 1.1916647 1.1798264
00000000: 7a3e 803f f9c1 893f e045 8e3f 88e3 803f
00000010: 294b 853f 1e2b 793f 3939 a03f 8910 8a3f
00000020: bd91 6d3f d6d0 603f 82f5 563f 236c a83f
00000030: f6a6 5c3f 04f6 943f f13e 9f3f 1f85 ee3e
00000040: 434d 833f d7cf 7e3f b32e 363f aaf2 a13f
00000050: c35b 893f 52be 733f df50 a43f 6fa1 383f
00000060: cf18 2f3f c7e5 713f 9d27 773f 8558 653f
00000070: eb55 913f a63f 963f 7888 983f 8d04 973f

bn1.bias f4 [32]
0.05798084 -0.104341745 -0.1633795 -0.20909025 -0.021945164 -0.20329107 0.06940099 -0.030658215
-0.16253889 -0.36730814 -0.2745922 -0.07145017 -0.2933849 -0.02250666 0.05081642 -0.47136012
-0.019863382 0.27983606 -0.4132792 -0.069017366 -0.12666467 -0.1319159 0.060021207 -0.2669695
-0.34314498 -0.19086966 -0.16121633 0.0043947613 -0.0014514162 -0.0005043555 0.08366914 -0.10985967
00000000: 517d 6d3d 20b1 d5bd f54c 27be c11b 56be
00000010: 58c6 b3bc 892b 50be 1b22 8e3d f026 fbbc
00000020: 9870 26be d00f bcbe 5997 8cbe 7754 92bd
00000030: 8c36 96be e35f b8bc e124 503d 1d56 f1be
00000040: 88b8 a2bc ac46 8f3e 5599 d3be fa58 8dbd
00000050: 62b4 01be f614 07be ccd8 753d 3ab0 88be
00000060: b3b0 afbe 5673 43be e515 25be ee01 903b
00000070: 723d beba ba36 04ba ba5a ab3d 1bfe e0bd

bn1.running_mean f4 [32]
0.21065253 0.064457364 -0.14447966 -0.17425758 -0.002699789 -0.12879096 -0.13447493 0.07166439
0.35645002 0.27266356 0.04373939 -0.17252477 0.07429595 -0.0039040088 0.25614536 0.04864752
-0.38894743 0.15028766 -0.14406337 0.11681359 -0.1300203 0.39964083 -0.20167843 0.0018434939
0.097353004 0.03406325 0.28690737 0.1892706 -0.2455687 -0.27885988 0.19444077 0.15016373
00000000: 4cb5 573e 3902 843d 7af2 13be 9470 32be
00000010: f1ee 30bb c7e1 03be ccb3 09be c8c4 923d
00000020: 9e80 b63e 8f9a 8b3e 1328 333d 55aa 30be
00000030: 7a28 983d 66da 7fbb 7c25 833e 9f42 473d
00000040: 1e24 c7be 02e5 193e 5985 13be f73b ef3d
00000050: 0b24 05be b99d cc3e ca84 4ebe 64a1 f13a
00000060: 0361 c73d e885 0b3d 86e5 923e 27d0 413e
00000070: 5c76 7bbe b9c6 8ebe 7b1b 473e 85c4 193e

bn1.running_var f4 [32]
0.31618702 0.21518177 0.3153047 0.16815098 0.2142835 0.4860412 0.41400298 0.05940694
0.17509374 0.08805959 0.22452714 0.44888943 0.051134385 0.11411229 0.57035685 0.3464546
0.34571803 0.15963519 0.107576385 0.08225958 0.10784939 0.25377917 0.29554307 0.29294878
1.6140105 0.34078375 0.34263313 0.086479515 0.4696527 0.11818944 0.24411982 0.31046024
00000000: 44e3 a13e 9c58 5c3e 9e6f a13e c52f 2c3e
00000010: 226d 5b3e 64da f83e 33f8 d33e b154 733d
00000020: c64b 333e 9658 b43d 71ea 653e d6d4 e53e
00000030: 4a72 513d b4b3 e93d e802 123f 7f62 b13e
00000040: f401 b13e 6877 233e 0251 dc3d b677 a83d
00000050: 24e0 dc3d 58ef 813e 6c51 973e 62fd 953e
00000060: e597 ce3f 357b ae3e 9c6d af3e 2c1c b13d
00000070: 5276 f03e 4e0d f23d 8cfa 793e a5f4 9e3e

conv2.weight f4 [64, 32, 3, 3]
-0.038061034 -0.11417706 -0.031493396 -0.21990171 -0.046983074 -0.24933897 0.062556274 0.08530225
-0.08640801 -0.029404178 -0.0032921038 0.06265603 -0.03554065 0.14471646 0.24357265 0.0324074
-0.047914267 0.027572604 0.09264885 0.022717856 0.1361651 -0.15490714 -0.032190464 -0.057373554
-0.05866156 0.13318653 0.023669103 -0.08359425 -0.04174777 -0.19554935 0.010988306 0.05608536
0.14606583 -0.041802157 -0.013894233 0.07522202 -0.08694889 -0.014069289 0.04659919 -0.30720013
0.017976623 -0.13507542 0.04964401 0.039537963 0.048712656 0.017358642 0.03883015 -0.07866292
-0.008615736 -0.07052597 -0.24082999 0.00977559 -0.024102649 -0.18343969 0.06321137 0.07327917
0.13174862 -0.30396593 0.022461418 0.040973876 -0.11001632 0.11171892 0.11637881 0.015158084
-0.23577182 -0.26919574 0.19071004 -0.003713098 -0.12470588 0.05570339 0.1328381 0.058908865
-0.01256161 -0.015619134 -0.013026968 -0.093926534 -0.018827466 -0.07716083 0.03458098 -0.118420795
-0.18577068 0.08331294 -0.13182998 -0.12903954 0.10020762 0.037985593 -0.14186497 0.0712779
0.020681916 0.07344532 -0.053227596 0.010455925 0.0072259028 0.003939636 -0.009791066 -0.1610624
0.060104623 -0.13268131 -0.14240055 0.057929084 0.056654338 -0.061085567 -0.06906679 0.040086403
-0.16370367 0.13036878 -0.012845362 -0.19701308 -0.071509905 -0.011386035 0.16219987 -0.2247244
-0.11772706 0.06377669 0.040694933 0.09248762 0.0987767 0.049640834 -0.0901256 -0.084276214
-0.22061242 0.07005059 -0.07798215 0.09049798 0.008992652 -0.008041171 -0.068754286 -0.06937765
0.19785444 0.004428671 -0.102690324 -0.049899314 0.014002036 -0.05884824 -0.23318562 -0.019585818
0.02640139 -0.09946173 -0.037027888 0.006835199 -0.15088193 0.07761924 0.0010571061 -0.085873686
-0.02283849 0.12223679 6.4012536e-05 0.06022306 0.09143382 0.101375975 0.17183225 0.024497408
-0.049654037 0.0039756233 -0.13702002 0.12498927 -0.12699568 -0.14769405 -0.16584589 0.010822902
-0.07354317 -0.05593644 0.042996626 -0.11854716 -0.06451144 0.022369042 -0.11875256 -0.103027605
0.091629505 -0.08150703 0.0086806305 -0.07845312 0.057261426 0.011543553 -0.15436344 0.10394934
0.20510173 0.01153304 0.076065905 -0.026174642 -0.024858609 -0.044423707 -0.047824223 0.059397466
0.071991414 0.067643695 0.044819914 -0.022854187 -0.004506347 0.0036537733 -0.12495202 -0.1344048
0.113726 0.054614283 0.08626503 0.008231216 -0.03554959 -0.0033002724 0.022132998 -0.007924811
0.038233016 -0.2191862 -0.026550857 -0.20624955 -0.05336928 0.10719376 0.055365827 0.0029969849
-0.17481837 -0.014482781 0.035142038 0.010620346 -0.022541428 0.035892997 -0.09619903 -6.743988e-05
-0.03826659 -0.05753594 -0.15525396 -0.052091517 -0.040155984 -0.08555585 0.09729205 -0.050986957
0.01978148 0.080496565 -0.13623862 -0.020150788 -0.029344551 -0.08868123 -0.15031464 -0.025839623
-0.008026845 0.017180035 -0.09874391 -0.09185335 -0.076267794 -0.18663827 -0.2426297 -0.10648115
0.049590517 0.031224709 0.030281842 -0.16581145 -0.026770746 -0.18179502 0.068835944 -0.028249543
-0.06858286 0.054042 0.08096348 -0.025080662 0.20873064 0.03156936 0.001644437 0.18512803
00000000: e3e5 1bbd aad5 e9bd 38ff 00bd ea2d 61be
00000010: 5371 40bd b752 7fbe 811d 803d f2b2 ae3d
00000020: aff6 b0bd 08e1 f0bc 56c0 57bb ce51 803d
00000030: 1393 11bd 8d30 143e 1c6b 793e 9fbd 043d
00000040: c041 44bd f1df e13c aebe bd3d cc1a ba3c
00000050: dd6e 0b3e fa9f 1ebe 26da 03bd 8800 6bbd
00000060: 1b47 70bd 0d62 083e b5e5 c13c 7633 abbd
00000070: b6ff 2abd 173e 48be 4c08 343c c3b9 653d
00000080: 4892 153e bd38 2bbd a3a4 63bc 010e 9a3d
00000090: 4212 b2bd e082 66bc cbde 3e3d 5649 9dbe
000000a0: b643 933c 3651 0abe 8457 4b3d 8ff2 213d
000000b0: ec86 473d b633 8e3c 5d0c 1f3d 061a a1bd
000000c0: 0429 0dbc eb6f 90bd 239c 76be cc29 203c
000000d0: eb72 c5bc 9dd7 3bbe f674 813d 6413 963d
000000e0: 1ce9 063e 6ca1 9bbe 0201 b83c 39d4 273d
000000f0: 3d50 e1bd e4cc e43d 0358 ee3d 9d59 783c
00000100: 2b6e 71be 06d4 89be 7e49 433e 7257 73bb
00000110: cc65 ffbd 3d29 643d b606 083e 6c4a 713d
00000120: 36cf 4dbc 65e7 7fbc 106f 55bc 8e5c c0bd
00000130: 0f3c 9abc 7f06 9ebd c9a4 0d3d 9a86 f2bd
00000140: ab3a 3ebe fa9f aa3d 70fe 06be f122 04be
00000150: a739 cd3d c896 1b3d 0d45 11be 26fa 913d
00000160: 1f6d a93c 806a 963d 2e05 5abd 544f 2b3c
00000170: 44c7 ec3b 1018 813b b56a 20bc 8bed 24be
00000180: 4430 763d 9cdd 07be 73d1 11be 0c47 6d3d
00000190: 610e 683d dc34 7abd e472 8dbd a431 243d
000001a0: efa1 27be 657f 053e 5a75 52bc ccbd 49be
000001b0: c973 92bd 7e8c 3abc b917 263e 271e 66be
000001c0: e31a f1bd 5a9d 823d bbaf 263d 266a bd3d
000001d0: 704b ca3d 3054 4b3d c593 b8bd 0299 acbd
000001e0: 39e8 61be af76 8f3d 1bb5 9fbd 0157 b93d
000001f0: eb55 133c 1ebf 03bc 0ccf 8cbd df15 8ebd
00000200: 5b9a 4a3e 631e 913b 4e4f d2bd 3963 4cbd
00000210: cc68 653c da0a 71bd 36c8 6ebe 7072 a0bc
00000220: ba47 d83c 97b2 cbbd 8eaa 17bd cef9 df3b
00000230: cb80 1abe d6f6 9e3d 988e 8a3a 8bde afbd
00000240: c917 bbbc 4857 fa3d 783e 8638 75ac 763d
00000250: a841 bb3d 359e cf3d cbf4 2f3e caae c83c
00000260: 0862 4bbd f245 823b fa4e 0cbe 60fa ff3d
00000270: 280b 02be 1c3d 17be 81d3 29be 8b52 313c
00000280: cd9d 96bd 9c1d 65bd 3b1d 303d dac8 f2bd
00000290: 931e 84bd 483f b73c 8b34 f3bd 2300 d3bd
000002a0: 40a8 bb3d 28ed a6bd 3439 0e3c 08ac a0bd
000002b0: f58a 6a3d 2c21 3d3c 7311 1ebe 64e3 d43d
000002c0: 3006 523e 13f5 3c3c 71c8 9b3d 346c d6bc
000002d0: 48a4 cbbc a2f5 35bd 55e3 43bd c24a 733d
000002e0: 3c70 933d c788 8a3d 1695 373d b438 bbbc
000002f0: faa9 93bb 2574 6f3b d8e6 ffbd 69a1 09be
00000300: 2de9 e83d 3ab3 5f3d b8ab b03d 39dc 063c
00000310: 729c 11bd 6249 58bb 4350 b53c 11d7 01bc
00000320: 399a 1c3d 5972 60be 2f81 d9bc 1533 53be
00000330: bf99 5abd 6788 db3d 47c7 623d 1069 443b
00000340: 9603 33be 3049 6dbc 19f1 0f3d f600 2e3c
00000350: cda8 b8bc 8904 133d ff03 c5bd 836e 8db8
00000360: 6ebd 1cbd ceaa 6bbd e5fa 1ebe ea5d 55bd
00000370: 9a7a 24bd e837 afbd 0e41 c73d b3d7 50bd
00000380: c50c a23c 62db a43d 2382 0bbe 4413 a5bc
00000390: fc63 f0bc 819e b5bd 15ec 19be 9ead d3bc
000003a0: 0783 03bc 25bd 8c3c 3f3a cabd 9c1d bcbd
000003b0: 4a32 9cbd 1a1e 3fbe ec73 78be ca12 dabd
000003c0: 6d1f 4b3d f6ca ff3c a011 f83c 7aca 29be
000003d0: 534e dbbc 7928 3abe dcf9 8c3d 966b e7bc
000003e0: 2c75 8cbd 255b 5d3d 2ed0 a53d f675 cdbc
000003f0: 7cbd 553e e04e 013d 268a d73a 3492 3d3e

conv2.bias f4 [64]
-0.034999724 -0.0018305707 0.004636422 0.0289042 0.03930714 -0.087019555 0.014413528 0.040182028
-0.038168624 -0.039569397 -0.030811127 0.080749586 0.072816834 0.007912241 -0.03393904 -0.030630665
-0.014865351 -0.056678806 -0.04590897 -0.060633473 -0.05738031 0.09285944 0.087228574 0.035313327
0.03464588 -0.03696413 0.009228628 0.02645968 0.038113464 -0.11202185 0.010059885 -0.016375605
-0.029090047 0.047841016 0.07319339 -0.051147502 0.08062555 -0.01724221 -0.055233642 -0.0023910415
-0.038353395 -0.021968115 -0.122662045 0.069398925 -0.0011355237 -0.03355944 -0.013188173 0.032498404
0.023429599 0.021902287 -0.05424614 0.018533986 0.04487037 -0.05879031 -8.821466e-06 0.029792223
0.016674934 0.05200457 0.09084443 -0.038821302 -0.14175136 -0.06582859 -0.09347203 0.09087324
00000000: df5b 0fbd c3ef efba 20ed 973b 80c8 ec3c
00000010: 8600 213d 4f37 b2bd b826 6c3c e995 243d
00000020: b456 1cbd 8513 22bd 9e67 fcbc 0a60 a53d
00000030: fe20 953d 58a2 013c aa03 0bbd 29ed fabc
00000040: cd8d 73bc 0928 68bd 0b0b 3cbd ce5a 78bd
00000050: 9e07 6bbd 172d be3d e5a4 b23d b5a4 103d
00000060: d7e8 0d3d b367 17bd ac33 173c f9c1 d83c
00000070: dd1c 1c3d b66b e5bd 37d2 243c 2226 86bc
00000080: 404e eebc f1f4 433d 6be6 953d 0b80 51bd
00000090: 021f a53d 893f 8dbc ac3c 62bd 05b3 1cbb
000000a0: 7318 1dbd 7af6 b3bc 3d36 fbbd 0621 8e3d
000000b0: dad5 94ba a075 09bd 3513 58bc 0c1d 053d
000000c0: 6eef bf3c 6d6c b33c 3331 5ebd 96d4 973c
000000d0: fec9 373d 1cce 70bd e8ff 13b7 d20e f43c
000000e0: df99 883c be02 553d a50c ba3d 1603 1fbd
000000f0: 4527 11be 24d1 86bd 436e bfbd c01b ba3d

bn2.weight f4 [64]
1.010082 1.0972931 1.1155108 1.0115541 1.086224 1.0160263 1.0587232 0.8467965
0.9551781 1.1490337 1.0113963 1.0447448 0.810665 1.1289469 0.8233409 0.6642218
0.99282664 0.9311683 1.173892 1.2176663 1.0179379 1.1948786 1.1957315 1.1288798
1.0752867 0.7075108 0.7829141 0.87906563 1.1232158 0.8635972 1.1483151 0.9983691
1.0999757 1.0944419 1.0264122 0.95842004 1.1476333 1.0635747 1.1635289 0.8707833
1.1054931 1.1362222 1.2157657 0.8966128 1.1197673 1.0199196 0.99837524 1.3148952
1.0976161 1.0555434 1.0329895 0.82198226 1.0153207 0.9547083 0.97456974 0.77506423
0.93962777 1.1328863 0.8445319 1.0563456 1.0021479 1.017201 0.9925623 1.1265926
00000000: 5e4a 813f 1a74 8c3f 0fc9 8e3f 9b7a 813f
00000010: 6309 8b3f 260d 823f 3e84 873f a8c7 583f
00000020: 8d86 743f 8913 933f 6f75 813f 33ba 853f
00000030: be87 4f3f 5581 903f 78c6 523f 710a 2a3f
00000040: e329 7e3f 0c61 6e3f 1842 963f 7ddc 9b3f
00000050: ca4b 823f c8f1 983f bb0d 993f 227f 903f
00000060: ffa2 893f 6e1f 353f 0f6d 483f 720a 613f
00000070: 89c5 8f3f b514 5d3f fdfb 923f 1e95 7f3f
00000080: 01cc 8c3f ac16 8c3f 7a61 833f 045b 753f
00000090: a6e5 923f 3723 883f 84ee 943f a8eb 5e3f
000000a0: cc80 8d3f bb6f 913f 369e 9b3f 6b88 653f
000000b0: 8954 8f3f ba8c 823f 8595 7f3f 7c4e a83f
000000c0: af7e 8c3f 0c1c 873f 0039 843f 6e6d 523f
000000d0: 07f6 813f c367 743f 677d 793f 9c6a 463f
000000e0: 728b 703f 6b02 913f 3e33 583f 5536 873f
000000f0: 6246 803f a433 823f 9018 7e3f 3034 903f

bn2.bias f4 [64]
-0.035540845 0.1090264 0.123729244 -0.092715375 -0.025412645 -0.3173694 -0.21158576 -0.34566
-0.25019205 0.026050737 -0.13626383 -0.37433487 -0.29170057 -0.008156758 -0.5017567 -0.42518592
0.0033732203 -0.41679916 -0.081327714 -0.08490601 -0.08662019 0.017080037 -0.062482398 -0.06921813
-0.24260373 -0.28597817 -0.3929663 -0.26142934 -0.1043389 -0.3528281 0.20148338 -0.3487493
-0.1519062 0.017010659 0.03983737 -0.27426404 -0.14309783 -0.26247194 -0.20661634 -0.17645682
0.12366872 0.09645391 -0.07362549 -0.3998819 -0.25615153 -0.08110123 -0.054543033 -0.020943059
-0.07769249 -0.13893446 -0.021186132 -0.38652256 -0.020631904 -0.15044563 -0.026756521 -0.44651052
-0.16769518 0.13957334 -0.39165935 0.011869306 -0.27706635 0.0014336514 -0.15731902 -0.121729
00000000: 4793 11bd 3c49 df3d c265 fd3d 8fe1 bdbd
00000010: 2e2e d0bc 3e7e a2be f0a9 58be 59fa b0be
00000020: 2c19 80be 5b68 d53c bf88 0bbe d2a8 bfbe
00000030: c759 95be eca3 05bc 2173 00bf f8b1 d9be
00000040: 3f11 5d3b b366 d5be 258f a6bd 34e3 adbd
00000050: ed65 b1bd 6feb 8b3c 8bed 7fbd 3cc2 8dbd
00000060: 1d6d 78be bb6b 92be e132 c9be 11da 85be
00000070: a2af d5bd e2a5 b4be a951 4e3e 458f b2be
00000080: 4d8d 1bbe f059 8b3c 832c 233d 566c 8cbe
00000090: 3d88 12be b962 86be 3c93 53be 19b1 34be
000000a0: 0746 fd3d a189 c53d f6c8 96bd 52bd ccbe
000000b0: 4b26 83be 6718 a6bd 8468 5fbd c790 abbc
000000c0: 3d1d 9fbd d644 0ebe 8a8e adbc 49e6 c5be
000000d0: 3d04 a9bc 6b0e 1abe 7e30 dbbc 079d e4be
000000e0: 49b8 2bbe 50ec 0e3e 9387 c8be 7a77 423c
000000f0: a4db 8dbe 5ce9 bb3a 3d18 21be 0e4d f9bd

bn2.running_mean f4 [64]
-2.4723606 -2.9978137 -2.58304 -1.5980928 -0.47456464 -1.343006 1.9572759 -0.44282418
-0.85714066 -0.7926632 -1.1146704 -0.033952653 -1.2527258 -2.1976476 -1.3733609 1.3516423
-3.4082634 -0.39690843 -3.1898892 -1.3180729 -0.23152256 0.017477991 -0.83003646 -3.05958
-1.7107658 4.977051 -1.7014596 -4.2540517 -1.2124771 0.62074757 -3.698483 -2.4098244
-1.4622263 -1.9506135 -2.924922 -0.96193427 -1.6805167 -1.3422009 -1.2862736 -0.9899951
-3.515193 -2.3911617 -0.9312984 0.28939182 -1.6694275 -2.6578074 -3.4161499 0.43345106
-1.8370854 -2.4979992 -3.035697 -0.21443847 -2.0643935 -0.26168948 -3.628821 -2.016635
-0.6929477 -2.1030903 -1.2155623 -3.383584 -0.96170306 -2.7577531 -2.9682767 -0.46378058
00000000: 283b 1ec0 2edc 3fc0 8750 25c0 4e8e ccbf
00000010: 23fa f2be 9fe7 abbf 0488 fa3f dab9 e2be
00000020: 926d 5bbf faeb 4abf 85ad 8ebf f011 0bbd
00000030: 5259 a0bf 42a6 0cc0 4aca afbf 9d02 ad3f
00000040: fd20 5ac0 9537 cbbe 2527 4cc0 9db6 a8bf
00000050: 4014 6dbe 012e 8f3c 457d 54bf 29d0 43c0
00000060: 60fa dabf 0044 9f40 6ec9 d9bf 3121 88c0
00000070: 7332 9bbf 50e9 1e3f f2b3 6cc0 903a 1ac0
00000080: 3b2a bbbf b4ad f9bf ec31 3bc0 5341 76bf
00000090: 2c1b d7bf 3dcd abbf 9da4 a4bf 5270 7dbf
000000a0: ecf8 60c0 cb08 19c0 9269 6ebf 2a2b 943e
000000b0: cdaf d5bf 8419 2ac0 33a2 5ac0 4ced dd3e
000000c0: 9d25 ebbf 38df 1fc0 dc48 42c0 c295 5bbe
000000d0: 061f 04c0 2afc 85be 9a3e 68c0 8c10 01c0
000000e0: 0565 31bf 0899 06c0 8c97 9bbf a48c 58c0
000000f0: 2c32 76bf 077f 30c0 3ff8 3dc0 a674 edbe

bn2.running_var f4 [64]
7.986905 7.110317 10.218632 7.119773 6.2275176 5.3890386 4.666748 3.5912488
6.427022 7.646714 8.593203 2.9069319 6.1561193 10.590935 2.7479525 5.9231625
9.173269 4.007275 5.715467 6.4286013 5.537453 5.2197204 3.1767812 6.073821
6.6233406 15.558891 3.1665905 6.641921 5.586304 5.961038 10.614636 7.829427
4.2707276 8.374002 4.2154384 3.6994812 6.244397 4.67206 6.926797 8.817873
8.631827 6.8462396 7.602669 3.2269704 7.152992 6.395318 13.087313 4.138759
11.873077 6.213982 5.5086365 3.0050051 6.595125 11.259404 8.949103 5.0389457
8.672987 6.398166 7.2600865 5.8130255 9.242331 4.369304 5.703712 5.3115034
00000000: ba94 ff40 b887 e340 847f 2341 2ed5 e340
00000010: d347 c740 0173 ac40 0056 9540 05d7 6540
00000020: 2aaa cd40 e2b1 f440 c27d 0941 2c0b 3a40
00000030: eefe c440 7874 2941 74de 2f40 8c8a bd40
00000040: b6c5 1241 993b 8040 1be5 b640 1ab7 cd40
00000050: d132 b140 f307 a740 6250 4b40 be5c c240
00000060: 68f2 d340 38f1 7841 6ba9 4a40 9e8a d440
00000070: 01c3 b240 d3c0 be40 8dd5 2941 aa8a fa40
00000080: cda9 8840 eafb 0541 dfe4 8640 4dc4 6c40
00000090: 1ad2 c740 8481 9540 52a8 dd40 0216 0d41
000000a0: f71b 0a41 6514 db40 1049 f340 af86 4e40
000000b0: 4fe5 e440 72a6 cc40 a265 5141 b770 8440
000000c0: 20f8 3d41 f1d8 c640 c046 b040 0152 4040
000000d0: 440b d340 8526 3441 872f 0f41 0b3f a140
000000e0: 8ec4 0a41 c7bd cc40 a152 e840 4e04 ba40
000000f0: 96e0 1341 57d1 8b40 cf84 b640 d6f7 a940

conv3.weight f4 [128, 64, 3, 3]
0.1498891 0.10170348 0.055020772 0.033359505 0.18210989 -0.018861366 0.030848162 -0.045457758
0.06317625 0.13373914 -0.00859834 -0.00025855887 0.023628766 0.06771284 -0.013075071 -0.026404925
0.1266372 -0.17879364 0.005469404 0.10298531 -0.05075061 0.01182034 0.029787092 -0.02940617
-0.011475206 -0.23014587 -0.12681437 0.14851388 0.022967182 0.10365246 0.010426835 0.09235058
0.12435685 0.115355276 0.10486399 -0.052299693 0.11091138 -0.026628543 0.09040971 0.059247956
0.012201239 0.06468618 0.06552901 0.06435889 -0.1356522 0.085152924 0.16040835 -0.048913423
0.15779716 0.074439555 -0.04090181 -0.0077244826 0.07799299 0.058122348 0.109836884 -0.043955892
-0.08887433 -0.15485865 -0.049487334 -0.17967097 -0.19994557 0.077992484 -0.075475916 -0.05822462
-0.15001032 -0.13762043 -0.086068735 -0.09041974 -0.06266201 -0.07555784 -0.00532792 -0.05120475
-0.068426475 0.02020843 0.06836008 0.18264285 0.014634548 0.0803977 0.067551605 -0.0075796237
0.033331808 0.052638613 -0.06797689 -0.23420878 0.017474683 -0.05748616 -0.061132215 0.13292746
-0.015520417 -0.109097 0.043544713 0.11891853 0.13503757 0.017738324 -0.059181046 0.031715713
0.019232888 0.10541834 -0.020626776 -0.17743084 -0.07223742 -0.15303867 -0.05598402 -0.032516792
-0.039821453 -0.048405733 -0.054956704 -0.18467626 -0.119382985 -0.101999216 -0.092694156 0.038759805
-0.029123532 -0.16482541 -0.020729227 0.037112847 -0.029039599 -0.10608422 -0.054220777 -0.2190107
0.020222986 0.10876886 0.15769807 0.18782157 -0.078569695 0.022647392 -0.048199162 -0.07346861
-0.033735488 -0.11687892 -0.040069304 -0.08766146 0.011253671 0.020947203 -0.124789864 0.0057800896
-0.0030674268 -0.08654621 -0.052682344 0.019284638 -0.19548385 -0.18209006 0.008585211 -0.08405861
-0.017302467 0.027737243 -0.057313118 0.031326402 -0.06034709 -0.07983564 0.040174022 -0.1660986
-0.23597388 0.1740149 -0.013836148 0.0022865888 -0.046600383 -0.065197006 -0.088106416 0.037832372
-0.08762302 -0.058984496 -0.036542624 0.08577009 0.015409549 0.06567545 -0.04808728 0.14003624
-0.072050236 -0.0634018 0.07499808 -0.16639891 -0.0034366392 -0.16102351 0.16222191 0.0383927
0.04596575 0.15881166 0.046732128 0.06843118 0.12892348 0.020042598 0.13234879 -0.045245502
-0.0015964931 0.026080042 0.06278389 0.15515217 -0.08476731 0.007353856 -0.01368425 -0.12972642
0.08248502 0.045701485 0.07440562 0.111712165 -0.18004239 0.020254105 -0.1092567 0.051957723
-0.07261885 -0.09465934 0.27202973 0.080607034 0.05411367 0.06944471 -0.18788679 0.10640669
0.10899788 -0.011397711 0.04972076 0.104821935 -0.036912505 -0.008072102 0.05069879 -0.07113426
-0.07769598 -0.08198887 0.07283428 -0.21717554 0.16188927 0.030207766 0.074543335 -0.084564395
0.05251351 -0.021707034 -0.082414836 0.043495722 -0.1240076 -0.08541134 -0.08799338 -0.03490177
0.06116795 -0.10920791 -0.019429306 -0.019935567 0.12269138 -0.04770615 -0.02009303 -0.09730846
-0.15777807 -0.09825258 -0.051088993 -0.026217243 0.023769742 -0.10184657 -0.078647986 -0.1035031
-0.049832184 -0.098209605 -0.0362691 -0.08085187 0.17462985 0.14535996 0.13321526 -0.049834523
00000000: 877c 193e ea49 d03d 765d 613d faa3 083d
00000010: 047b 3a3e 2783 9abc 49b5 fc3c ea31 3abd
00000020: 8d62 813d eaf2 083e 0de0 0cbc 2f8f 87b9
00000030: 1d91 c13c 08ad 8a3d d338 56bc 244f d8bc
00000040: 2fad 013e ae15 37be b038 b33b f6e9 d23d
00000050: dfdf 4fbd 19aa 413c 0f04 f43c 35e5 f0bc
00000060: 8102 3cbc 5cab 6bbe a0db 01be 0614 183e
00000070: ac25 bc3c be47 d43d 51d5 2a3c 4d22 bd3d
00000080: ceae fe3d 633f ec3d eec2 d63d 3438 56bd
00000090: 8125 e33d 1a24 dabc ba28 b93d fcad 723d
000000a0: b5e7 473c 307a 843d 1334 863d 98ce 833d
000000b0: 69e8 0abe a864 ae3d 1642 243e 7159 48bd
000000c0: 9495 213e c473 983d a888 27bd a81d fdbb
000000d0: caba 9f3d b311 6e3d 29f2 e03d 180b 34bd
000000e0: bf03 b6bd 4493 1ebe 3bb3 4abd abfb 37be
000000f0: 88be 4cbe 86ba 9f3d 1e93 9abd f07c 6ebd
00000100: 4e9c 19be 5fec 0cbe ce44 b0bd fc2d b9bd
00000110: f154 80bd 12be 9abd d595 aebb 12bc 51bd
00000120: 2e23 8cbd 268c a53c 5f00 8c3d ba06 3b3e
00000130: bec5 6f3c 8da7 a43d 7f58 8a3d 7e5e f8bb
00000140: ef86 083d 969b 573d 7837 8bbd 6dd4 6fbe
00000150: 1127 8f3c 9c76 6bbd c665 7abd 231e 083e
00000160: 5949 7ebc 3f6e dfbd f15b 323d 8f8b f33d
00000170: 4a47 0a3e f64f 913c d367 72bd 56e8 013d
00000180: 4a8e 9d3c 92e5 d73d 7cf9 a8bc 6eb0 35be
00000190: 36f1 93bd 2bb6 1cbe 804f 65bd 5430 05bd
000001a0: d21b 23bd 1745 46bd 481a 61bd c61b 3dbe
000001b0: 117f f4bd f7e4 d0bd 6fd6 bdbd 9ac2 1e3d
000001c0: 7994 eebc fec7 28be 57d0 a9bc a403 183d
000001d0: 74e4 edbc af42 d9bd 9b16 5ebd 5744 60be
000001e0: adaa a53c 35c2 de3d 9a7b 213e 4c54 403e
000001f0: 26e9 a0bd 0687 b93c 7c6c 45bd b676 96bd
00000200: 392e 0abd 375e efbd b61f 24bd da87 b3bd
00000210: 5161 383c 7899 ab3c d491 ffbd e866 bd3b
00000220: e206 49bb 243f b1bd 71c9 57bd d1fa 9d3c
00000230: eb2c 48be d175 3abe fca8 0c3c ec26 acbd
00000240: e7bd 8dbc 3739 e33c 29c1 6abd 1d50 003d
00000250: 832e 77bd de80 a3bd 848d 243d c015 2abe
00000260: 23a3 71be f630 323e 03b1 62bc 98da 153b
00000270: 0be0 3ebd 0286 85bd 2371 b4bd 1ef6 1a3d
00000280: b373 b3bd ba99 71bd b8ad 15bd 3ba8 af3d
00000290: 5578 7c3c da80 863d 2bf7 44bd a965 0f3e
000002a0: 138f 93bd ced8 81bd 9898 993d 7a64 2abe
000002b0: 3d39 61bb 59e3 24be 801d 263e aa41 1d3d
000002c0: 9546 3c3d 869f 223e 306a 3f3d a625 8c3d
000002d0: 8404 043e 6030 a43c 7186 073e 5953 39bd
000002e0: 6b41 d1ba d0a5 d53c d794 803d 36e0 1e3e
000002f0: 7c9a adbd 9ef8 f03b e833 60bc 01d7 04be
00000300: e8ed a83d 7b31 3b3d f961 983d 59c9 e43d
00000310: 085d 38be f0eb a53c fac1 dfbd 9fd1 543d
00000320: 31b9 94bd c2dc c1bd 7b47 8b3e 4d15 a53d
00000330: 4ca6 5d3d 0739 8e3d 6565 40be c0eb d93d
00000340: 483a df3d 77bd 3abc ffa7 4b3d e2ac d63d
00000350: 9131 17bd da40 04bc 89a9 4f3d d7ae 91bd
00000360: 121f 9fbd c8e9 a7bd 242a 953d 4463 5ebe
00000370: 4dc6 253e 4776 f73c 2daa 983d 1930 adbd
00000380: 6818 573d f3d2 b1bc 1cc9 a8bd 9228 323d
00000390: b2f7 fdbd 24ec aebd e035 b4bd 29f5 0ebd
000003a0: 3f8b 7a3d 66a8 dfbd 352a 9fbc ea4f a3bc
000003b0: 9e45 fb3d 8667 43bd 239a a4bc a849 c7bd
000003c0: 9390 21be a638 c9bd b142 51bd 8bc5 d6bc
000003d0: c3b8 c23c ef94 d0bd 3212 a1bd 6ff9 d3bd
000003e0: d51c 4cbd 1e22 c9bd e88e 14bd aa95 a5bd
000003f0: 2bd2 323e 3ed9 143e 9569 083e 491f 4cbd

conv3.bias f4 [128]
0.026892398 -0.028244596 -0.033406973 0.0059178686 0.014498135 0.027485311 0.01871965 0.027867261
0.029001612 -0.011656626 0.036094677 -0.018595835 -0.00305947 0.027472055 -0.032302707 0.012810153
-0.02758383 0.011623145 0.008818362 0.004033659 -0.035069797 -0.0026509156 0.03752906 -0.0066800895
0.03461989 0.04310696 0.00015724673 -0.016495151 0.009555775 -0.03688102 0.029460672 -0.023384878
0.033268105 -0.03310433 -0.0027151632 -0.02142891 0.041847214 0.00033087257 -0.031546157 0.03297511
-0.0076705627 -0.006598146 0.0047835787 -0.020002462 -0.0019238065 -0.023122465 -0.035353318 0.0032480801
0.0028980651 0.031675506 -0.02051477 -0.025686204 -0.028481813 0.0013808134 0.008542498 0.023720281
-0.0042323186 -0.040120244 0.025069125 0.032207936 -0.042659126 0.014345653 -0.0028231563 -0.019072969
-0.0070425984 0.039629374 0.018458344 0.034674946 0.031982057 -0.004667492 -0.04314238 -0.014005169
0.03345884 -0.025709184 0.038342677 -0.015551103 0.029232638 0.013717722 -0.024126176 0.0001467615
-0.020382207 0.025872398 -0.0015535922 -0.0076409224 -4.0604882e-05 -0.03793278 0.015500847 0.019372337
-0.00015535364 -0.010758113 -0.026437903 0.03342329 -0.04023744 0.019077862 0.03236393 0.044213798
-0.025379512 0.018014653 0.036075484 -0.012058448 0.016666181 0.022945633 0.033778705 0.03886181
-0.009056628 -0.03201208 -0.03375077 0.012506322 0.03016178 0.014369971 -0.027964618 -0.010559852
0.03225191 -0.008583873 0.024844704 -0.020282138 0.00094584504 -0.02087427 0.037913814 -0.022827145
-0.018904503 -0.0043740612 0.0007561075 0.042468723 0.030519279 0.031868707 -0.010635184 -0.005448901
00000000: 724d dc3c 3661 e7bc c0d5 08bd aeea c13b
00000010: 9689 6d3c e028 e13c f459 993c e249 e43c
00000020: ca94 ed3c 6ffb 3ebc 03d8 133d 4b56 98bc
00000030: 6481 48bb 130d e13c d84f 04bd ade1 513c
00000040: 7cf7 e1bc 016f 3e3c e47a 103c c92c 843b
00000050: 59a5 0fbd fcba 2dbb 12b8 193d a7e4 dabb
00000060: 96cd 0d3d ec90 303d 99e2 2439 d720 87bc
00000070: d38f 1c3c 8d10 17bd 8257 f13c a591 bfbc
00000080: 2344 083d 6898 07bd e1f0 31bb ae8b afbc
00000090: fc67 2b3d f778 ad39 8b36 01bd e910 073d
000000a0: 5859 fbbb 4335 d8bb 91bf 9c3b 34dc a3bc
000000b0: 3c28 fcba 536b bdbc a4ce 10bd bedd 543b
000000c0: 77ed 3d3b 2dbe 013d 970e a8bc e06b d2bc
000000d0: b152 e9bc 69fc b43a d5f5 0b3c 0951 c23c
000000e0: 43af 8abb 2055 24bd c45d cd3c 78ec 033d
000000f0: 56bb 2ebd 080a 6b3c b404 39bb ea3e 9cbc
00000100: 99c5 e6bb 6952 223d f435 973c 5107 0e3d
00000110: 9eff 023d c3f1 98bb 10b6 30bd f075 65bc
00000120: 230c 093d 119c d2bc 360d 1d3d 0eca 7ebc
00000130: 4979 ef3c 4cc0 603c 42a4 c5bc fde3 1939
00000140: 96f8 a6bc 5af2 d33c e7a1 cbba b460 fabb
00000150: 294f 2ab8 675f 1bbd 44f7 7d3c bcb2 9e3c
00000160: 6de6 22b9 cc42 30bc 4d94 d8bc dce6 083d
00000170: 04d0 24bd 2d49 9c3c 0a90 043d 8719 353d
00000180: b2e8 cfbc 7793 933c e3c3 133d cc90 45bc
00000190: 8487 883c 7bf8 bb3c 8a5b 0a3d 902d 1f3d
000001a0: 4062 14bc 191f 03bd 3f3e 0abd 51e7 4c3c
000001b0: d615 f73c 0770 6b3c 0e16 e5bc 3b03 2dbc
000001c0: 941a 043d 5fa3 0cbc 1f87 cb3c ba26 a6bc
000001d0: 96f2 773a 8400 abbc 844b 1b3d feff babc
000001e0: 9edd 9abc 4954 8fbb 8435 463a aff3 2d3d
000001f0: 9103 fa3c c388 023d 323f 2ebc b28c b2bb

bn3.weight f4 [128]
1.0478611 1.0924212 0.9356399 1.0049645 1.071654 1.0059621 1.0840789 1.0211669
1.0677125 1.0024333 0.9935084 0.9896957 0.995723 0.893075 0.9365894 1.0385932
0.9911753 0.9792632 0.96419024 0.9298991 0.97394186 0.9800028 1.0588778 1.004097
0.97212553 0.9522345 0.99148667 1.0123903 1.0422572 0.8929447 0.9453348 1.04919
0.9377868 1.0321734 1.0137224 1.0589726 0.9384346 0.98575425 0.9900322 0.9616562
0.97463065 1.0311838 1.0167273 1.047807 1.0291659 1.0638745 1.0179052 1.0817851
0.85426426 1.0101144 1.0779423 1.0465508 1.1101803 0.99904335 1.10053 0.94425416
0.96178406 0.93182766 1.0009524 0.9665286 1.0093684 0.9693196 0.9431673 1.0521119
1.0102108 0.9626642 0.93204904 0.92119807 0.97564334 0.99889046 0.97260255 0.96401954
0.93149805 1.1214924 0.9526232 1.107821 0.98021984 0.9760034 1.0376543 1.081152
0.9678931 1.031135 1.1149311 0.99478483 0.9603666 0.92818236 1.0618985 1.1194404
1.0943238 0.97298396 1.0117635 0.9166625 0.9904613 1.0590998 1.0467896 0.9714759
0.9859267 0.8722633 0.83181524 1.0153079 1.0393264 0.9708614 1.1094848 0.98153937
0.9855113 0.9788512 1.0574977 0.9347619 1.081071 0.91821617 1.0352886 1.1007713
1.0845575 1.0136387 0.9024854 0.9661476 0.9787788 1.0591223 1.1753188 0.93099326
0.9849207 1.0473619 1.0763122 1.0222687 0.9312169 1.0495692 0.9468097 1.0998144
00000000: 5020 863f 75d4 8b3f 1986 6f3f ada2 803f
00000010: f52b 893f 5ec3 803f 19c3 8a3f 99b5 823f
00000020: ceaa 883f bc4f 803f 9156 7e3f b35c 7d3f
00000030: b4e7 7e3f 90a0 643f 53c4 6f3f 9ff0 843f
00000040: aabd 7d3f feb0 7a3f 2cd5 763f de0d 6e3f
00000050: 4154 793f 77e1 7a3f 4f89 873f 4086 803f
00000060: 38dd 783f a4c5 733f 12d2 7d3f 0196 813f
00000070: af68 853f 0698 643f 7601 723f dc4b 863f
00000080: cc12 703f 421e 843f a8c1 813f 6a8c 873f
00000090: 403d 703f 645a 7c3f c072 7d3f 1a2f 763f
000000a0: 6581 793f d5fd 833f 1f24 823f 8a1e 863f
000000b0: b5bb 833f 0a2d 883f b84a 823f ef77 8a3f
000000c0: 10b1 5a3f 6e4b 813f 03fa 893f 60f5 853f
000000d0: 631a 8e3f 4ec1 7f3f 2bde 8c3f a4ba 713f
000000e0: 7b37 763f 428c 6e3f 351f 803f 6b6e 773f
000000f0: fc32 813f 5425 783f 6a73 713f 9aab 863f
00000100: 964e 813f 2971 763f c49a 6e3f a3d3 6b3f
00000110: c3c3 793f 49b7 7f3f 7bfc 783f fcc9 763f
00000120: a876 6e3f 108d 8f3f 1ddf 733f 14cd 8d3f
00000130: b0ef 7a3f 5cdb 793f dbd1 843f 3063 8a3f
00000140: d8c7 773f 3bfc 833f 10b6 8e3f 38aa 7e3f
00000150: 96da 753f 5c9d 6d3f 4aec 873f d349 8f3f
00000160: cd12 8c3f 7a15 793f 7781 813f 65aa 6a3f
00000170: df8e 7d3f 9590 873f 34fd 853f a5b2 783f
00000180: b165 7c3f a64c 5f3f d8f1 543f 9cf5 813f
00000190: a608 853f 5f8a 783f 9903 8e3f 2a46 7b3f
000001a0: 784a 7c3f fe95 7a3f 165c 873f 8e4c 6f3f
000001b0: 8960 8a3f 3710 6b3f 5684 843f 13e6 8c3f
000001c0: c8d2 8a3f eabe 813f 4809 673f 7355 773f
000001d0: 3f91 7a3f 5291 873f d970 963f 9355 6e3f
000001e0: c323 7c3f f40f 863f 99c4 893f b3d9 823f
000001f0: 3b64 6e3f 4958 863f 1f62 723f b8c6 8c3f

bn3.bias f4 [128]
-0.30526575 -0.3087737 -0.45688087 -0.3584438 -0.2693469 -0.37363747 -0.3694119 -0.2701093
-0.38000616 -0.43639982 -0.3020183 -0.37665844 -0.31003132 -0.43642408 -0.34027705 -0.34642586
-0.35882026 -0.3117659 -0.28368667 -0.32547784 -0.35961 -0.30818477 -0.36902758 -0.41181618
-0.3587097 -0.3256395 -0.31598917 -0.37678313 -0.2941584 -0.38266474 -0.3585913 -0.25549757
-0.44312873 -0.3261856 -0.35660845 -0.43692857 -0.3637723 -0.36175707 -0.32012454 -0.34359565
-0.3586756 -0.28837293 -0.30330873 -0.3366084 -0.3509742 -0.4635727 -0.288747 -0.3519396
-0.32475343 -0.38209775 -0.40377843 -0.41423753 -0.29357347 -0.37974688 -0.4705844 -0.3262089
-0.31173125 -0.33361182 -0.30815038 -0.31019452 -0.3916561 -0.41498584 -0.30674902 -0.34706587
-0.35619518 -0.3676864 -0.41608566 -0.37256593 -0.42804742 -0.2789577 -0.32193506 -0.30360126
-0.31889248 -0.36148575 -0.36531496 -0.38992593 -0.30234683 -0.45579207 -0.30209664 -0.5241874
-0.33546337 -0.2724095 -0.4610678 -0.34065858 -0.35323542 -0.3437161 -0.30741572 -0.21574807
-0.37519807 -0.3153181 -0.37034613 -0.40568128 -0.4064336 -0.3572268 -0.35515034 -0.35426623
-0.2601126 -0.45588654 -0.31001857 -0.33929113 -0.38859877 -0.27454272 -0.33322132 -0.36075807
-0.3332851 -0.32314456 -0.33892193 -0.40108696 -0.3173533 -0.32863045 -0.44726744 -0.4104399
-0.3397895 -0.32997337 -0.42864585 -0.40136725 -0.35758308 -0.3325833 -0.19637042 -0.2790602
-0.2638725 -0.25020218 -0.42091864 -0.32116678 -0.34497133 -0.38784513 -0.37475872 -0.33967143
00000000: cb4b 9cbe 9617 9ebe 4aec e9be f285 b7be
00000010: d6e7 89be 694d bfbe 8e23 bdbe c44b 8abe
00000020: 2b90 c2be cc6f dfbe 25a2 9abe 60d9 c0be
00000030: 6dbc 9ebe fa72 dfbe cb38 aebe bb5e b1be
00000040: 4ab7 b7be c89f 9fbe 613f 91be 08a5 a6be
00000050: cd1e b8be 65ca 9dbe 2ff1 bcbe 92d9 d2be
00000060: cca8 b7be 38ba a6be 55c9 a1be b8e9 c0be
00000070: ee9b 96be a2ec c3be 4799 b7be 94d0 82be
00000080: c5e1 e2be cd01 a7be 6295 b6be 1ab5 dfbe
00000090: 5d40 babe 3938 b9be 5de7 a3be c5eb afbe
000000a0: 54a4 b7be 9ea5 93be 484b 9bbe f057 acbe
000000b0: e4b2 b3be 6759 edbe a6d6 93be 6d31 b4be
000000c0: 1546 a6be 51a2 c3be 0cbc cebe f116 d4be
000000d0: 434f 96be 2f6e c2be 70f0 f0be da04 a7be
000000e0: 3d9b 9fbe 2bcf aabe e3c5 9dbe d1d1 9ebe
000000f0: 2687 c8be 0679 d4be 350e 9dbe 9eb2 b1be
00000100: 375f b6be 6441 bcbe 2e09 d5be f6c0 bebe
00000110: 0829 dbbe 8bd3 8ebe acd4 a4be a071 9bbe
00000120: e045 a3be a914 b9be 900a bbbe 5fa4 c7be
00000130: 34cd 9abe 945d e9be 69ac 9abe 2531 06bf
00000140: dbc1 abbe 4279 8bbe 1411 ecbe cd6a aebe
00000150: 46db b4be 8ffb afbe 9865 9dbe 10ed 5cbe
00000160: f619 c0be 6071 a1be 029e bdbe 75b5 cfbe
00000170: 1118 d0be 6ee6 b6be 44d6 b5be 6262 b5be
00000180: 7b2d 85be f669 e9be c1ba 9ebe 91b7 adbe
00000190: 6bf6 c6be dd90 8cbe fc9b aabe 48b5 b8be
000001a0: 58a4 aabe 3473 a5be 2d87 adbe 455b cdbe
000001b0: 227c a2be 4042 a8be 3d00 e5be 2e25 d2be
000001c0: e4f8 adbe 45f2 a8be 7877 dbbe 0280 cdbe
000001d0: 2115 b7be 5c48 aabe 5415 49be fbe0 8ebe
000001e0: 4c1a 87be 801a 80be a682 d7be f96f a4be
000001f0: 15a0 b0be a393 c6be 60e0 bfbe 6ae9 adbe

bn3.running_mean f4 [128]
-1.5409838 -2.9186401 -0.32116014 0.35724026 -6.2847996 -3.7495327 -4.9151554 -2.695469
-7.166304 -4.45024 -2.240427 -4.8738174 -1.4980547 -3.598817 -4.8235073 -1.9324372
2.8164234 -4.7352996 -4.3018446 -3.197554 -5.122884 -6.1143327 -5.8659477 -5.3130198
-2.40342 -4.8854866 -6.1933513 -3.6794252 -3.5104828 -6.6871676 -2.5780413 -3.7851942
-2.8737116 -4.030043 -2.8643637 -0.91462076 -3.750895 -3.059966 -3.460134 -5.243206
-4.18864 -2.467523 -6.43036 -2.8309703 -4.940462 -3.3140404 -4.1524444 -5.8246384
-4.832959 -3.1615374 -1.8183358 -3.999138 -4.645719 2.9597526 -3.4053633 -2.376729
-2.4075174 -0.025989182 -3.6112247 -1.2039016 -3.4323437 -1.4542184 -4.124598 -2.9255261
-3.0356338 -0.25115913 2.8081515 -5.7033544 -3.2305653 -5.035498 -5.2015457 -6.774728
-3.7064695 -1.7781172 -4.736173 -2.502572 -2.9009109 -5.3921046 -2.1636884 -5.8050704
-2.795559 -5.544343 -4.0722623 -2.413398 1.2961301 1.2445848 -1.9864722 -5.066674
-4.602694 -4.240269 -2.321557 -1.2754142 -2.4398692 -3.7717764 -4.507636 -3.6599371
-1.7757064 -5.621994 -1.3531389 -4.989956 -5.8814664 -4.5936985 -3.573104 -6.0426817
-4.7924466 -4.9540734 -4.1072526 -4.1531887 -2.7151294 -2.5786188 -5.4701576 -2.875132
-3.341658 -1.7654457 -4.3137302 -1.4964163 -5.33789 -2.817694 -3.7196372 -5.3401184
-4.172086 -6.500608 -1.2494272 -7.0592446 -7.1131015 -3.592371 -2.1488345 -0.99099994
00000000: f53e c5bf 00cb 3ac0 1a6f a4be 32e8 b63e
00000010: 141d c9c0 58f8 6fc0 f448 9dc0 9082 2cc0
00000020: 5d52 e5c0 5e68 8ec0 2863 0fc0 50f6 9bc0
00000030: 42c0 bfbf 0553 66c0 2c5a 9ac0 1a5a f7bf
00000040: 4840 3440 9387 97c0 b6a8 89c0 baa4 4cc0
00000050: aaee a3c0 9da8 c3c0 d8b5 bbc0 4204 aac0
00000060: a2d1 19c0 e855 9cc0 ef2f c6c0 b47b 6bc0
00000070: c0ab 60c0 47fd d5c0 a1fe 24c0 9f40 72c0
00000080: e4ea 37c0 1df6 80c0 bc51 37c0 9624 6abf
00000090: aa0e 70c0 7cd6 43c0 d672 5dc0 58c8 a7c0
000000a0: 5709 86c0 e6eb 1dc0 82c5 cdc0 9e2e 35c0
000000b0: 4418 9ec0 3d19 54c0 d3e0 84c0 7063 bac0
000000c0: 9aa7 9ac0 a156 4ac0 3abf e8bf e1f1 7fc0
000000d0: bba9 94c0 966c 3d40 79f1 59c0 541c 18c0
000000e0: c414 1ac0 44e7 d4bc 4e1e 67c0 7319 9abf
000000f0: 85ab 5bc0 d423 babf b5fc 83c0 d23b 3bc0
00000100: d347 42c0 ee97 80be c1b8 3340 e181 b6c0
00000110: 95c1 4ec0 cd22 a1c0 1073 a6c0 92ca d8c0
00000120: cc36 6dc0 5899 e3bf bb8e 97c0 242a 20c0
00000130: 86a8 39c0 1f8c acc0 df79 0ac0 23c3 b9c0
00000140: 70ea 32c0 426b b1c0 f94f 82c0 1d75 1ac0
00000150: 97e7 a53f 8e4e 9f3f b944 febf 3222 a2c0
00000160: 4549 93c0 49b0 87c0 6494 14c0 c640 a3bf
00000170: d126 1cc0 c964 71c0 8e3e 90c0 693c 6ac0
00000180: 594a e3bf 60e7 b3c0 a833 adbf b8ad 9fc0
00000190: f934 bcc0 94ff 92c0 bcad 64c0 a65d c1c0
000001a0: b95b 99c0 c587 9ec0 9d6e 83c0 ece6 84c0
000001b0: aec4 2dc0 1708 25c0 880b afc0 2a02 38c0
000001c0: badd 55c0 20fa e1bf 140a 8ac0 928a bfbf
000001d0: ffcf aac0 1955 34c0 890e 6ec0 40e2 aac0
000001e0: ba81 85c0 fb04 d0c0 3bed 9fbf 55e5 e1c0
000001f0: 879e e3c0 68e9 65c0 8186 09c0 2cb2 7dbf

bn3.running_var f4 [128]
11.484302 7.5023837 15.242192 14.612466 20.211437 13.699648 13.209516 16.038912
14.35682 6.8550634 12.962378 15.608523 13.172617 11.958721 14.564747 12.238232
8.5338745 8.06538 12.3767605 17.604702 13.522168 13.62268 13.860744 12.790833
16.088678 15.085253 18.096176 13.5899725 15.361983 12.945099 12.277178 7.461742
16.259012 16.910915 12.630827 17.057728 14.772315 18.881573 11.638899 22.913332
17.11962 13.380912 13.653762 12.087391 15.993862 8.99261 12.514955 10.403756
11.359446 14.685783 11.748545 11.039862 14.648292 8.325408 14.462883 11.279343
15.568434 14.11858 10.524572 17.079885 14.3249035 11.384615 15.039931 17.699295
9.422899 8.444211 10.777904 16.456463 12.19938 13.438916 13.88631 20.968721
19.96508 7.0146403 12.312708 9.171953 9.621905 12.274653 12.791602 9.883571
14.559011 10.863956 12.403583 14.293228 14.848123 10.96201 6.6069846 18.729666
14.047637 20.562334 13.986014 13.790863 11.446822 9.600821 9.719171 11.719964
16.117687 10.883838 13.865186 17.779278 11.577025 18.491446 7.701775 12.898745
10.663139 17.72112 10.538201 9.377175 10.335878 17.603512 13.378897 7.0916305
10.10267 13.298597 14.405862 15.880706 8.354531 13.565993 10.563366 12.396597
21.79615 18.950342 10.625899 15.759951 16.361645 8.561948 13.412427 6.999157
00000000: b3bf 3741 8713 f040 05e0 7341 a9cc 6941
00000010: 06b1 a141 c231 5b41 2d5a 5341 b14f 8041
00000020: 89b5 6541 ae5c db40 e665 4f41 83bc 7941
00000030: 0ac3 5241 ec56 3f41 3409 6941 cccf 4341
00000040: c08a 0841 cc0b 0141 3607 4641 6ed6 8c41
00000050: cd5a 5841 7ff6 5941 9cc5 5d41 41a7 4c41
00000060: 9db5 8041 325d 7141 f8c4 9041 8770 5941
00000070: afca 7541 201f 4f41 526f 4441 97c6 ee40
00000080: 7512 8241 8e49 8741 de17 4a41 3a76 8841
00000090: 675b 6c41 760d 9741 ee38 3a41 814e b741
000000a0: fbf4 8841 3718 5641 cf75 5a41 f465 4141
000000b0: dce6 7f41 bbe1 0f41 413d 4841 c975 2641
000000c0: 4ac0 3541 f8f8 6a41 0afa 3b41 46a3 3041
000000d0: 675f 6a41 df34 0541 f867 6741 3078 3441
000000e0: 4e18 7941 b4e5 6141 a664 2841 9ba3 8841
000000f0: ce32 6541 6227 3641 8fa3 7041 2898 8d41
00000100: 32c4 1641 7d1b 0741 4b72 2c41 d6a6 8341
00000110: a930 4341 cd05 5741 532e 5e41 f1bf a741
00000120: 7cb8 9f41 ef77 e040 da00 4541 52c0 1241
00000130: 53f3 1941 fb64 4441 67aa 4c41 1b23 1e41
00000140: b6f1 6841 c4d2 2d41 1375 4641 10b1 6441
00000150: e991 6d41 6564 2f41 6b6c d340 5bd6 9541
00000160: 1fc3 6041 a97f a441 b7c6 5f41 60a7 5c41
00000170: 2f26 3741 f69c 1941 b981 1b41 f984 3b41
00000180: 06f1 8041 3324 2e41 cdd7 5d41 f63b 8e41
00000190: 7f3b 3941 7bee 9341 f174 f640 4261 4e41
000001a0: 389c 2a41 dbc4 8d41 799c 2841 e908 1641
000001b0: c25f 2541 fed3 8c41 f60f 5641 a3ee e240
000001c0: 89a4 2141 0ec7 5441 697e 6641 5f17 7e41
000001d0: 29ac 0541 4f0e 5941 8c03 2941 7658 4641
000001e0: 845e ae41 4d9a 9741 af03 2a41 c228 7c41
000001f0: a6e4 8241 bdfd 0841 4d99 5641 18f9 df40
