checkpoints/cnn_3layers_SGD_best.pth (torch, 978219 bytes, 22 tensors)

conv1.weight f4 [32, 1, 3, 3]
00000000: aefa b5bc 3e7b 543d b7ec 533e 4f9f 43be
00000010: 6bf6 c53d df86 d7bb 4273 9bbe c6a7 78bd
00000020: 180b b6be b126 dcbe 5942 c6be 2892 ce3a
00000030: cad4 8a3b 537d 643d 2a91 023e 8ead 413e
00000040: 16ae 8a3e a6a2 fd3d 1de0 113b f62f 89be
00000050: d77b 6bbe d90f 3ebe 76fb 99be 4da0 91bd
00000060: 91f8 7e3e 077b a4be 4b2b 35be e118 923c
00000070: e5f9 883e 2d1c aa3d dc22 9c3d 978d 3b3e
00000080: e8cc 74be 333e 153e 7cef a7bd 92ac bdbe
00000090: 3dc8 403d 8506 ad3e 70bd ae3d 27a7 a6be
000000a0: cd95 863e f35f 253e 2bdd 8bbe 0ba8 8fbe
000000b0: dc21 c4bc 407b 25be d88a 13be 93c6 0d3e
000000c0: 1a4e 1bbe 0d4b 9ebe 6ec5 d6be ba09 be3e
000000d0: 9667 6d3e 9682 20bd 0dd1 17be a7d5 a6be
000000e0: 51c7 8ebd c155 99be 7e22 f2ba 52c8 883e
000000f0: 02b9 4bbe ad15 ab3e e8d7 a33d 3454 6c3e
00000100: f9d4 4c3d 67f6 943d de90 2b3b 57ea 993e
00000110: 5ed6 ff3d 1976 b1be 768a a0be cb36 39be
00000120: b333 7cbe 2370 073c bb18 5b3e 27c6 80be
00000130: c61a f1bd fc3f a03e 2595 1cbe 48da d9be
00000140: f720 533e 86f1 8cbd 1933 dabd cd2c 89be
00000150: 8111 7abe 2199 7ebd 5dd0 5f3c 8215 ba3e
00000160: 4680 003e d665 3d3e 4352 1bbd 6011 893d
00000170: 43fc 52be acbd 12bd e13a 82be e153 5abe
00000180: 61dc 2cbe c0dd a7be dfba 35be fe52 953e
00000190: 5b53 cd3e 7082 d33d 3e39 99be 353e 18be
000001a0: e937 83bc 8132 99be 8f72 2bbe 0007 113e
000001b0: e7d5 8c3e 2890 ce3d b9f9 1ebd 9107 983e
000001c0: 5bbc 0bbe 64e4 95be 9c7b b63c a06a a63d
000001d0: 965c a2be a105 833e 18ec 663b 1a80 033e
000001e0: fbf4 143e 7df4 f53d a680 38bd 15b2 58be
000001f0: b141 59be fee4 aebe 48d6 62be 9001 ecbd
00000200: dde8 293e 58e8 7e3e 8831 2d3e 0b7b 8b3e
00000210: 1884 39bd fb45 bcbe a958 4ebe 9b60 80be
00000220: 58f4 6fbe ac85 12be c46f bcbd 25b7 7dbe
00000230: 91ff 08be 8c71 1abe 6739 96bc ad71 5fbe
00000240: 9c57 233d 8216 fabe 3419 26be 02a6 e13e
00000250: 7e53 9cbc 27b3 00be 6c9a 853e 9d8a 3a3d
00000260: 42e1 c73d d208 afbd fb4f d5bc 7cfb a6be
00000270: 5cba 89be 816a 21be e954 053c 58a3 90be
00000280: 755c 8bbc 577b 573e f33d 89bd 8802 c7be
00000290: ca23 bd3d 4d7f bdbe ae73 93bd fdc2 be3d
000002a0: b17f 693e a20e 8d3e 2dde 273e f2cf dbbe
000002b0: 1174 f93d dde7 553e bf22 353d 2ac5 b03e
000002c0: 6d26 a8bd 5766 503e 1386 e3bd dcea 2fbe
000002d0: 759a d93e b937 f13c 2967 863e a132 3cbd
000002e0: 5941 cdbd 0941 96be 0573 b2be c6ee 02be
000002f0: 4577 c7bd cb3c 803d 47e6 cf3d 387f 8bbe
00000300: ffea e43e 70ad c2be ba28 fbbd c55a 503e
00000310: bb0a d83d 2d5e 38bd dc2f 66be 70a4 cd3e
00000320: 6ac1 fbbe cdce 32be e489 273e 8ab6 acbc
00000330: 3c52 22be fefa 5f3e 267d 32be 1444 0bbe
00000340: f16d 8a3d 8f46 383e 7665 2cbe c7c6 40be
00000350: dff7 e2bc 32a6 b4bc 418c 9cbe 232c 26bc
00000360: c706 a33e 452b 2c3e 4a87 b83d 4919 033e
00000370: bf3d 473e 38bc 0c3e 77c1 9c3e 23bc 0e3e
00000380: 39be e53c 8d4e 403d d8c9 10be 7748 36be
00000390: 2fac e7be cdaa 50bc fc6a 1b3e 2db1 423e
000003a0: 927a 6e3e 0771 7c3e 743f 86bd 2dc4 88be
000003b0: d971 81be a86d 9cbe 2a55 a93d 377c a5be
000003c0: 18af 4dbe 52fd 36be 8289 95be c630 5c3e
000003d0: 0ca3 39bd b0ef 8e3d 1a5a 803d 4d2f 753e
000003e0: 7736 e0bc 1476 ea3d 8b22 963d d915 7f3e
000003f0: f47d ddbd eb2f b0be 3123 70be b47a a63e
-0.02221426 0.051875345 0.20695768 -0.1910374 0.09666141 -0.006577357 -0.30361372 -0.060706876
-0.3555534 -0.4299827 -0.38722494 0.0015760111 0.004236792 0.05578358 0.12750688 0.18913862
0.27085942 0.12384538 0.0022258826 -0.26794404 -0.2299646 -0.18560733 -0.30074662 -0.07110653
0.24899508 -0.32125112 -0.17692296 0.017834129 0.26753154 0.08306155 0.076238364 0.18315731
-0.2390629 0.14574508 -0.08199975 -0.37045723 0.047065962 0.33794037 0.08532226 -0.32549402
0.26286164 0.16149883 -0.27317175 -0.28057894 -0.023941927 -0.16160297 -0.14408433 0.13845281
-0.15166512 -0.30916634 -0.41947502 0.37116796 0.23184046 -0.039187036 -0.1482584 -0.3258488
-0.0697161 -0.29948238 -0.0018473414 0.26715332 -0.19894794 0.33414975 0.08000165 0.23078996
0.050007794 0.0727356 0.0026178877 0.300616 0.12492059 -0.34660414 -0.31355637 -0.18087308
-0.24629097 0.008266482 0.21396153 -0.25151178 -0.11772685 0.31298816 -0.15291269 -0.42549348
0.20618044 -0.068820044 -0.10654277 -0.26791993 -0.2442074 -0.062157754 0.0136605175 0.36344534
0.12548932 0.18495879 -0.037920248 0.06692767 -0.20604043 -0.035825416 -0.25435546 -0.2132106
-0.16880943 -0.3278637 -0.17747067 0.2916488 0.40102658 0.10327613 -0.29926485 -0.1486748
-0.016017871 -0.29921344 -0.1674292 0.14162827 0.27506945 0.100860894 -0.038812373 0.29693273
-0.1364607 -0.2927581 0.022275738 0.08125806 -0.31711262 0.25590232 0.0035235938 0.12841836
0.14546578 0.12009523 -0.045044564 -0.21161683 -0.21216466 -0.34159082 -0.22152054 -0.115237355
0.16592737 0.2489332 0.16913426 0.27242312 -0.04529199 -0.3677214 -0.20151009 -0.25073704
-0.23433053 -0.14308804 -0.09201005 -0.24776895 -0.13378741 -0.15082377 -0.018337918 -0.21820708
0.039878473 -0.48845297 -0.16220552 0.44071966 -0.01908278 -0.12568341 0.26094377 0.04554235
0.097597614 -0.08546604 -0.026039114 -0.32613742 -0.26899993 -0.15763284 0.00813792 -0.2824962
-0.01701186 0.21043144 -0.06701269 -0.3886912 0.09235342 -0.37011185 -0.071997985 0.09314535
0.22802617 0.27550226 0.16393347 -0.42932087 0.12180341 0.2088923 0.04422259 0.34525424
-0.08210454 0.2035154 -0.11109557 -0.17179435 0.42500654 0.029445516 0.2625058 -0.04594672
-0.1002223 -0.29346493 -0.34853378 -0.12786397 -0.09739546 0.06261595 0.10151344 -0.27245498
0.44710538 -0.38022947 -0.12263627 0.20347126 0.10548922 -0.045011688 -0.22479194 0.40164518
-0.49171 -0.174617 0.16361195 -0.021083135 -0.15851682 0.2187309 -0.17430553 -0.13600188
0.06759251 0.17995666 -0.1683558 -0.18825828 -0.027706085 -0.022051904 -0.30575755 -0.010142359
0.31841108 0.16813381 0.09010179 0.12802614 0.19457148 0.13743675 0.30616352 0.13938956
0.028044807 0.04694991 -0.14139497 -0.1780108 -0.45248553 -0.012736035 0.1517753 0.190129
0.23288944 0.24652492 -0.065550715 -0.2671217 -0.2528217 -0.3055241 0.08268197 -0.3232133
-0.20086324 -0.17870072 -0.29206473 0.2150298 -0.04532151 0.069793105 0.062671855 0.23943825
-0.02736972 0.11448303 0.07330807 0.24910678 -0.10815039 -0.34411559 -0.23450924 0.3251549

conv1.bias f4 [32]
00000000: b301 af3a fdf6 233e 90f2 bdbd 0c22 ba3d
00000010: bd99 5abe 85f4 123e 4b6d 4a3e 789f 4cbe
00000020: 7ec5 9d3e 48f6 473e 6886 953e 568b 043d
00000030: ee5a 6ebe 8b19 07be 1752 83be af40 22be
00000040: e203 aabe 64c3 e3bd bdf1 42bd be35 f23c
00000050: 0b60 013e f9ce 71bc 2daa 16be deff 1ebe
00000060: 409e 9c3e 1f53 51bc d914 0e3e fdb0 823e
00000070: 8033 5d3e a867 6f3e 6c62 2f3e 7adf 083d
0.0013351947 0.16012187 -0.09274781 0.09088525 -0.21347709 0.1435109 0.19768254 -0.19982708
0.30814737 0.19527543 0.29204106 0.032359444 -0.23276874 -0.13193338 -0.25648567 -0.15844987
-0.33206087 -0.11121252 -0.04759382 0.029566642 0.12634294 -0.014758819 -0.14713354 -0.15527293
0.30589485 -0.012776165 0.1387514 0.25525656 0.21601677 0.23379385 0.17127389 0.03341625

bn1.weight f4 [32]
00000000: c641 833f 1054 7b3f 347e 813f 83cd 823f
00000010: 471b 943f 60ef 923f f44f 963f 9b35 813f
00000020: 55c5 933f f75b 6c3f 1305 823f 264a 713f
00000030: a76c 763f 2584 863f 647a 763f d376 813f
00000040: fd61 8b3f d2e7 853f d7d7 6b3f 3baf 593f
00000050: ba44 833f 94ef 8d3f 6148 823f 8a46 833f
00000060: 537f 533f 2eac 453f 872b 803f ea30 503f
00000070: 9130 813f 655a 513f 741f 683f a0d9 863f
1.0254447 0.98175144 1.0116639 1.0218967 1.1570824 1.1479301 1.174315 1.0094484
1.1544596 0.9232783 1.0157799 0.94253767 0.9625954 1.0509077 0.96280503 1.0114387
1.0889279 1.0461371 0.9212622 0.85033005 1.0255349 1.1088738 1.0178338 1.0255902
0.82616156 0.7721585 1.0013283 0.81324637 1.0092946 0.81778556 0.90672994 1.0535164

bn1.bias f4 [32]
00000000: 9433 9f3b 48dd 07bd 1409 6a3c 91e9 7dbd
00000010: d7ea 99bd 4fe1 9a3c 4008 9a3b 823e 74bd
00000020: 2947 84bd f70b e4bc 48ae aa3c 0863 ffbd
00000030: 9b6a 1cbd dc6c 9d3b a48f 31bd 2605 c53c
00000040: fa21 83bd 16bf 2e3d a8f3 b3bc 7788 c7bd
00000050: 1522 833c 59ff 8ebd 34cd 70bd d99c a93c
00000060: a290 56bd 197f 7ebd 2b77 bd3b d325 82bd
00000070: 121c 8dbd 4139 f5bd 89c7 a4bd ae13 353c
0.0048584435 -0.033170015 0.014284391 -0.061990324 -0.07515495 0.018906264 0.0047006905 -0.059629925
-0.06458885 -0.027837737 0.020835057 -0.124700606 -0.038187604 0.004804237 -0.043349877 0.024050307
-0.06402965 0.042662703 -0.02196677 -0.097428255 0.016007463 -0.069822975 -0.058789447 0.020704674
-0.052384026 -0.06213293 0.005782028 -0.06354871 -0.068901196 -0.11973811 -0.08045871 0.011052055

bn1.running_mean f4 [32]
00000000: babe 3abc 613c 213e 00c7 ccbd d748 b13d
00000010: 443d 61be 6ac2 183e 151b 433e 3efa 54be
00000020: 4b46 9d3e 9ca1 4b3e f7ff 8d3e cc15 1b3d
00000030: e371 6dbe 0aca 0cbe 9551 87be 75ee 34be
00000040: dad2 a7be 444a fbbd ffd2 26bd 7046 b83c
00000050: 8427 043e db9c 1dbc 9e5f 2cbe ea8b 20be
00000060: 6250 a63e b1ac f6bb fa5b e63d 7540 893e
00000070: 13a7 583e ee9b 7b3e 741a 303e b4c6 f83c
-0.011398012 0.15745689 -0.09998894 0.08656471 -0.21996027 0.14917913 0.190533 -0.20798585
0.30717692 0.19885868 0.27734348 0.037862584 -0.23187976 -0.13748947 -0.2642943 -0.17669089
-0.32778054 -0.122700244 -0.040728565 0.022494525 0.12905699 -0.009619917 -0.1683335 -0.15678373
0.32483202 -0.0075279106 0.11248012 0.2680699 0.21157484 0.24571201 0.17197591 0.030368187

bn1.running_var f4 [32]
00000000: 0d6e b33e 194f eb3e 932a a33f 291e 8e3e
00000010: 20bc 8e3e 6282 ba3e 2a63 dc3e 9bae 843e
00000020: 6dd9 fd3e f6a6 663e e1d4 a83f 7121 983e
00000030: c404 c33e 0e5c 9c3e b3cb ef3d 5d40 b73f
00000040: 716b a33e f2d6 3c3f 8e98 af3e a2b1 193e
00000050: 2ed7 d13e 5ec6 893e 13f0 233e 0d2f b13e
00000060: be6c c23f cb51 883e f43e 0340 c2da 123f
00000070: f66c 773e b7b4 b13d 91be a13e 7c7b 093f
0.350449 0.45958784 1.2747368 0.27757385 0.27877903 0.364276 0.43044406 0.25914463
0.49579945 0.22524628 1.3189965 0.29713014 0.38089573 0.30538982 0.117087744 1.4316517
0.3191791 0.7376548 0.34296077 0.15009168 0.40984482 0.26909155 0.1600955 0.3460621
1.5189435 0.26624903 2.0507174 0.5736505 0.24162659 0.08677047 0.31590703 0.5370405

conv2.weight f4 [64, 32, 3, 3]
00000000: dcec d83c 95b8 123d ff96 d6bc ca1f 8ebc
00000010: e361 e3bc 7f77 1dbd 7b9a 453d 4ded 1f3d
00000020: 7d2a 0b3d 0acf 39bd 00cf b1bd b68b 7fbd
00000030: fee5 18bd b1a6 2cbc 46b9 dbbc 413a 6cbd
00000040: 753b cbbd 1109 90bd cdb3 e0bc 1d1a cd3c
00000050: a857 80bd 2b4a d73b fc07 d9bc f54d 2b3d
00000060: 1c32 4ebd d64f c6bc b783 783c cd2e 4dbc
00000070: 994d 823d 7d72 8abd 0d31 c1bc 20a3 87bd
00000080: c9a6 47bb 2848 05bd 2a63 0abd 48d6 bb3c
00000090: f2c5 eebc cf77 833c 6a2f b93c d290 0f3d
000000a0: 8acd 743d eef3 c33c 920e 3b3d ef7e 0a3e
000000b0: c8c3 37bd b324 7cbd 8e0d a8bd eb6c f83c
000000c0: 8803 7ebd 6367 be3b 272d 093d 28cd 14bd
000000d0: 6256 56bc 57b5 063d dd6e c2bd 1196 bbbb
000000e0: da19 883c 7ef9 acbd 837a 99bd f983 cabc
000000f0: 6ab9 8cbd f8e5 e8bd a3c0 b1bd 995b a2bc
00000100: cd6e 4abd 4967 aabb bcb9 c2bc 538e 1d3d
00000110: 4180 263c f8fa 57bd 4199 863d c05c 543d
00000120: 7628 88bc 5c4c a23c cbd4 0b3d aa65 173d
00000130: 5183 ed3c 9a40 a43b ac52 223d bb90 d73d
00000140: a83d 9a3a 6172 8bbd 606b d93b 6080 403d
00000150: f3d0 bdbc 4402 b4bd cf60 913c 6785 823c
00000160: a7fd 9f3c 8887 31bd cc35 393c d8c3 b1bc
00000170: 263f ca3c 9eb7 c53b fb33 9c3c f2aa 48bc
00000180: 40ea a73c b010 383d 3197 293d 5759 1fbc
00000190: fdde 703d 34e6 36bc 8307 ae3d daaf b63d
000001a0: 56f3 b63c 1bea 5fbc 8d5e 5f3d 6e84 ad3c
000001b0: 8833 04bd e251 6a3d fdfb 823a 8b66 963c
000001c0: 3074 29bd cbe3 79bc 1e21 a9bc aca2 06bd
000001d0: 0848 94bd 0786 3ebd 440f 6abc 3d02 c73c
000001e0: 1398 eabc b311 4dbd fe38 3cbc 3be7 aabc
000001f0: ed0d efbb f950 353d be63 2d3c 0ed5 bbbb
00000200: 66ad 3b3d 0e4d 133d 4d09 30bc b9e4 0dbd
00000210: ab4b 073d a341 76bd d238 82bc e6bf 0d3d
00000220: 0d5f 1abd 4326 9cbd 5542 87bc 9148 143c
00000230: 248e bb3c 2d7f 233d 3e0a 25bd 9a5d a3bc
00000240: a15c efbb 5374 8bbb 1e67 253c ca9f 983c
00000250: d190 b93c 1a44 b93d f66a 643d 2f80 893d
00000260: f5df 8d3d c265 a6bd 4b18 8fbd 2455 e73c
00000270: b970 c0bc 0dfc 81bd cdbc ea3c 1c5c f3bc
00000280: 4f43 b13c 4795 393d f4e0 babd 6eb9 87bd
00000290: 1a74 083c 1a73 37bd bae6 c9bd 1729 3f3d
000002a0: a6af cebb 5252 02be 031d 83ba 3ec0 5f3c
000002b0: 1f6d 9e3c 446c 3a3d 0318 56bc 161e 9ebc
000002c0: 5a4f 1e3a 08fe e0bc 6909 68bd b2dd e7bb
000002d0: 1b72 e9bc cfb1 a6bd 6195 cb3c b0ad a3bb
000002e0: 5429 053d 3331 8cbc 2572 f93c b55f babc
000002f0: 4a4e 01bc 48e6 e33b 4262 a43a 6a39 e1bb
00000300: a4af a8bd 0826 5fbb 010f 61bc 8814 893d
00000310: ea43 36bd 338d 40bd 928c 393c 63a5 a43c
00000320: bd90 2abb a95b d4bb c1de a13d 7d0a 2c3c
00000330: bddc 383d 080b 66bd ef30 a1bd 9189 59bd
00000340: 06f0 a7bd 8899 6e3b f6cb 5c3c 72df 1bbd
00000350: c548 a8bc 2b7a e4bb 6121 c0ba a0d6 6f3c
00000360: a697 5a3a a331 8b3d a9f5 003b 93bc 61bd
00000370: 8778 c93d 75c1 39bc 46f6 e0bc b137 303d
00000380: 7724 39bd 9320 233c 61e6 0b3d 21f7 2f3d
00000390: 7133 08bd c897 13bd 9858 8fba 1953 9abd
000003a0: d802 4d3b 3e65 3abd 52ab 443d 2cb2 08bd
000003b0: 52e3 61bd 979c 043d 77c5 0d3d 2961 3abd
000003c0: 94bd 09b9 4801 31bd 0abb ccbc b9b7 c33d
000003d0: 0abe 813b d9e8 963d f71c 24bc 5291 713c
000003e0: 51e6 ca3d 134d f1bc f2f2 503d 53bd 763c
000003f0: fa2a 82bc f7d8 1abd 14dd 2cbd 4250 4cbd
0.02648013 0.035820562 -0.026195047 -0.017349143 -0.027756637 -0.03844404 0.048243027 0.039044667
0.033976067 -0.045363463 -0.0868206 -0.062389098 -0.037328713 -0.010537789 -0.026821744 -0.057672743
-0.0992345 -0.07032979 -0.027429486 0.025036866 -0.06266719 0.006570121 -0.026493065 0.041822392
-0.050340757 -0.02420799 0.015168122 -0.012523365 0.06362457 -0.06760118 -0.02358296 -0.066229105
-0.0030464402 -0.032539517 -0.033785976 0.022929326 -0.029147122 0.01604834 0.022605617 0.03505022
0.05976633 0.023920026 0.045668192 0.13524984 -0.044864446 -0.061558437 -0.0820571 0.030325374
-0.062015086 0.0058106645 0.033490326 -0.036328465 -0.013082119 0.032887783 -0.09493802 -0.0057246764
0.01661389 -0.08446024 -0.074940704 -0.024721133 -0.068713024 -0.11371988 -0.08679321 -0.019819068
-0.049422074 -0.005200301 -0.023770206 0.03846581 0.010162414 -0.052729577 0.065721996 0.051846266
-0.016620856 0.019811802 0.034138482 0.03696219 0.02899328 0.005012584 0.039629623 0.10525652
0.0011767643 -0.068089254 0.0066351146 0.046997428 -0.023170924 -0.08789495 0.017746357 0.015932752
0.01953013 -0.043342143 0.01130433 -0.02169983 0.024688315 0.0060338518 0.019067755 -0.012247788
0.020497441 0.04493779 0.041403953 -0.00972589 0.05880641 -0.011163283 0.084975265 0.0892026
0.022332828 -0.013666655 0.05453353 0.021181311 -0.032275707 0.057206996 0.0009993311 0.018359443
-0.04137057 -0.015252064 -0.020645674 -0.03286998 -0.07240301 -0.046514537 -0.014285866 0.02429306
-0.028636968 -0.050065707 -0.011488197 -0.020862212 -0.0072953613 0.044266675 0.010582862 -0.005732185
0.045819663 0.035962157 -0.010744405 -0.034641955 0.033031147 -0.06012119 -0.015896235 0.034606837
-0.037688304 -0.07624485 -0.016511122 0.009050504 0.022894926 0.039916206 -0.04029297 -0.019942094
-0.0073047434 -0.0042558103 0.010095386 0.01863088 0.022652062 0.090461925 0.05576607 0.06713902
0.06927482 -0.081248775 -0.069870554 0.02823884 -0.02349125 -0.06346903 0.02865448 -0.029707007
0.02163854 0.045308378 -0.09124938 -0.06627165 0.008328462 -0.044787504 -0.09858461 0.046670046
-0.00630756 -0.12726715 -0.0010003153 0.013656674 0.019339142 0.045513406 -0.013067248 -0.019301455
0.0006039046 -0.027464882 -0.0566496 -0.0070759887 -0.028496793 -0.08139383 0.024851503 -0.0049950704
0.032510117 -0.017113304 0.030449936 -0.022750715 -0.007892201 0.006954942 0.001254149 -0.0068732994
-0.08236626 -0.0034049768 -0.013736487 0.06693369 -0.04449836 -0.047009658 0.0113250185 0.020098394
-0.0026026212 -0.0064806533 0.07903815 0.0105005475 0.045132387 -0.056162864 -0.078706615 -0.05310971
-0.08200078 0.003640743 0.013476362 -0.03805489 -0.020542512 -0.0069725714 -0.0014658385 0.014638573
0.00083386374 0.06796577 0.0019677675 -0.05511148 0.09837442 -0.011337628 -0.027461182 0.04302186
-0.04520079 0.009956497 0.034155253 0.04296029 -0.033252183 -0.03603342 -0.0010936437 -0.07535381
0.0031282213 -0.04550671 0.048014946 -0.033373043 -0.05514843 0.0323759 0.034612145 -0.045502815
-0.00013135961 -0.043214113 -0.02499153 0.09556527 0.003959422 0.07368631 -0.010016671 0.01474412
0.099072106 -0.029455697 0.05101294 0.015059787 -0.015889633 -0.03780457 -0.042203024 -0.049881227

conv2.bias f4 [64]
00000000: 4666 18bd 2e5e 093d 3312 463d 1748 253c
00000010: 98dc d0bc 6a96 ed3c d741 653b 2d60 5fbd
00000020: 0e44 b63c 6d33 0bbd 7069 13bd 760a 7fbc
00000030: a217 2dbd 2afd 29bd 2472 dd3c ef21 d2bc
00000040: 6764 263d 7ac2 aa3c ca65 00bd 6db3 48bd
00000050: 4f64 653d 7e50 2abd 06ca 533c cb56 0e3d
00000060: a70f 49bd 6ba0 683d 5dea 1d3c a347 4cbd
00000070: bbda ac3c 94d3 70bd c5f3 a53c 7595 f63c
00000080: c4af 01bd 3261 6fbd 3741 ffbc 4e5a d9bc
00000090: ddaa e2bc 00c8 143d 1315 273d a94e 3f3d
000000a0: d86f 6abc b6aa 94bc 530c e1bb 2606 76bb
000000b0: ae0f 37bd 14aa 1bbd e96d 38bd d60d 2bbd
000000c0: 0854 5bbd 82f4 ba3c 0105 b03c 2062 1d3d
000000d0: 5b18 683d 2107 a4bc ad77 633d 1f10 c4bc
000000e0: eb93 c53b 794c 5dbd ec4c 593d c0c5 6ebd
000000f0: 634b 68bd 3dd3 98bc 4c6f 1cbb c32c 0b3d
-0.03720691 0.033537082 0.0483572 0.010087988 -0.025495812 0.029002387 0.003498187 -0.05453508
0.022249248 -0.03398459 -0.035989225 -0.015566459 -0.042258866 -0.0415012 0.027031966 -0.025650946
0.040623095 0.020844687 -0.031347074 -0.04899924 0.056003865 -0.04158067 0.012926584 0.03475074
-0.049087193 0.05679361 0.009638396 -0.049873006 0.021100393 -0.058795527 0.02025784 0.030100564
-0.031661764 -0.058442302 -0.031159027 -0.026532318 -0.027669365 0.036323547 0.040791582 0.046705876
-0.014308892 -0.018147808 -0.0068679242 -0.0037540286 -0.044692688 -0.038003996 -0.045026693 -0.04176124
-0.053546935 0.022821669 0.021486761 0.038423657 0.056663852 -0.02002293 0.055534054 -0.023933468
0.006029596 -0.054028008 0.053051874 -0.058294058 -0.05671252 -0.018655414 -0.002387005 0.033978235

bn2.weight f4 [64]
00000000: 1fee 843f 8d4c 7f3f 8c92 883f 1d4a 853f
00000010: b3c3 853f ab7f 843f b261 7b3f b6cc 6b3f
00000020: bf4f 5e3f 6c66 733f 6469 883f cdf6 6c3f
00000030: e9d7 823f cdf1 7d3f 19af 733f adbb 8d3f
00000040: a488 6f3f 2050 863f f4fc 7b3f 9407 7d3f
00000050: e097 7b3f 1ce1 793f 4100 923f afa5 803f
00000060: 2901 6b3f 1e15 6b3f c1d0 843f 14ac 823f
00000070: 2567 833f 5d57 843f 868a 633f 51ad 803f
00000080: 51a9 823f f35a 713f 75c4 7f3f 2e1d 803f
00000090: 1597 783f efe6 773f 5a7f 833f cf92 743f
000000a0: b430 863f e0ce 833f 2af2 653f 9818 7d3f
000000b0: c79f 6f3f 1415 813f 604b 793f f014 7e3f
000000c0: ae11 843f 1720 803f 8896 823f 1ebd 683f
000000d0: 811b 793f 7229 813f 8a2a 8e3f 91e6 823f
000000e0: 63d0 843f 3ad7 823f 7f7e 7e3f 8b8a 793f
000000f0: 0e15 883f 74df 823f 52a6 7f3f b0d7 783f
1.0385169 0.9972618 1.0669723 1.0413243 1.0450348 1.0351461 0.98195946 0.9210924
0.8684043 0.9507816 1.0657163 0.9256409 1.022214 0.99197084 0.9518905 1.1072899
0.9356787 1.0493202 0.9843285 0.9883969 0.9827862 0.97609115 1.1406327 1.0050563
0.91798645 0.918291 1.0376207 1.0208764 1.0265852 1.0339161 0.88883245 1.0052892
1.0207921 0.942794 0.99909145 1.0008905 0.9710553 0.9683675 1.027324 0.9553651
1.0483613 1.0297508 0.8982264 0.9886565 0.93603176 1.0084558 0.9738064 0.992507
1.0317895 1.0009793 1.0202188 0.9091357 0.9730759 1.0090773 1.1106732 1.0226613
1.0376095 1.0221932 0.9941177 0.97477025 1.0631425 1.0224442 0.9986316 0.97204113

bn2.bias f4 [64]
00000000: 55a0 e5bc ad1c d8bc 5c77 a6bc e640 193b
00000010: 70f8 5dbd f94c fbbc 4d70 e5bc 1c9f 92bd
00000020: 57e6 00be 93b7 d5bd 93a7 423c 2be4 ccbd
00000030: 3098 6d3b 29a6 88bd 13f8 e6bd 2c8c 24bd
00000040: 4abe abbd c12d 693c 11a4 a0bd 0314 4cbb
00000050: b9fe f0bc e580 64bd 9f10 9d3c 6d8b 3abd
00000060: 9cce 60bd be19 e4bd b754 aebd 464d 0ebd
00000070: b6a9 a23b 9f29 b5bd 108d bdbd 8196 48bb
00000080: fb9b 02bd 941a e2bd 4864 23bb 5966 53bd
00000090: e815 6cbd f8a3 5bbd aa1c 99bd dd8e 95bd
000000a0: e5e6 64bc 7972 10bc 9d45 bcbd 5050 97bc
000000b0: 6257 c6bd e80f 2dbd 269b e0bc b125 3abd
000000c0: b6da 15bc fa58 7aba e733 033c 41eb 95bd
000000d0: 6bf3 06bb 954e 26bd 7c67 9f3b 72a9 0c3c
000000e0: 112a 0e3c 65b3 a9bd 634b 78bd 4d59 06bc
000000f0: 23f3 36bd 5d8f 97bd dfda dbbd 41e9 f1bd
-0.028030554 -0.026380861 -0.020320587 0.002338463 -0.054192007 -0.030676352 -0.02800765 -0.07159254
-0.12587868 -0.10435405 0.011880773 -0.10004457 0.003625404 -0.066723175 -0.11277785 -0.04017274
-0.08385904 0.0142321 -0.07843793 -0.0031139858 -0.029418336 -0.055786986 0.019172965 -0.045543123
-0.054884538 -0.111377224 -0.08512252 -0.034741662 0.004964079 -0.08845829 -0.09255421 -0.0030607285
-0.031887036 -0.110402256 -0.0024931598 -0.05161128 -0.05763808 -0.05362317 -0.0747617 -0.0730264
-0.013971065 -0.008816355 -0.09192965 -0.018470913 -0.09684636 -0.042251498 -0.02741773 -0.0454461
-0.009146383 -0.00095500017 0.00800798 -0.07320262 -0.0020591866 -0.040602285 0.004864631 0.008585321
0.008677022 -0.0828617 -0.06061877 -0.008200002 -0.044665467 -0.07400391 -0.10735106 -0.11812068

bn2.running_mean f4 [64]
00000000: affe 2ebf 0ac2 ccbe ff0f 2f3d 93f7 9abe
00000010: c395 ddbe 8be8 33bd cc48 c73a 42b0 7fbe
00000020: c7be 7e3e 0d12 9b3b 08b2 cdbf 72bb 70bf
00000030: d35d 5cbf 1a42 edbe 87df 0f3f ce79 3ebe
00000040: 9b95 7dbe 640c 32be 339b 89be 13c0 0dbf
00000050: e79c 09bf 3b99 d9be ee30 21bf e3fd 16bf
00000060: 4898 2ebf a1fa ddbd 6e47 01bf b567 a13d
00000070: 587a 803c 87e0 afbd 172e 233f e99e 82be
00000080: 165c 6abe d197 e63e 3f1b d9bd 7af7 e03c
00000090: 02f5 8abc 4118 12be c0d6 79bd 574b ddbe
000000a0: 9cbd 6dbe 7c04 b6be 1fe9 1b3f 07cd e23e
000000b0: 02f6 44bf d111 d1be 162f 3dbf 60d8 bcbe
000000c0: 8ac4 abbc f781 8abf 34b9 29bf 1a64 f03d
000000d0: fc4d 3cbf 8de5 33bf eacb 84be 9328 53bf
000000e0: df52 b1bd 6d21 753e 1d5b 9fbe 57fd 5ebf
000000f0: e820 87be 91e0 813e f20c d13d 8243 83be
-0.68357366 -0.3999179 0.042739864 -0.3026701 -0.43278322 -0.043922942 0.001520419 -0.24969581
0.24877463 0.0047323764 -1.6069956 -0.9403602 -0.86080664 -0.46339494 0.5620045 -0.18601152
-0.24764101 -0.17387539 -0.2687622 -0.55371207 -0.5375504 -0.42499718 -0.62965286 -0.5898115
-0.6820111 -0.10838819 -0.5049962 0.07881109 0.015683338 -0.08587747 0.637422 -0.25511864
-0.2288669 0.45037702 -0.106009 0.027461756 -0.016962532 -0.14267065 -0.060995817 -0.43221542
-0.23216861 -0.35550296 0.6090259 0.44297048 -0.7693788 -0.40833905 -0.7389997 -0.3688383
-0.02096774 -1.0820912 -0.6629822 0.11737843 -0.73556495 -0.7027214 -0.25936824 -0.82483786
-0.086583845 0.23938532 -0.311242 -0.87105316 -0.26392293 0.25366643 0.10207547 -0.25637442

bn2.running_var f4 [64]
00000000: 03e3 403f 3670 6c3f 651a 983f 2dc5 8f3f
00000010: b588 633f 1e20 8a3f 2b7b 603f 2d5b 463f
00000020: 026c 883f a208 883f 1a41 ab3f dbd7 6a3f
00000030: 0017 8c3f de5d 093f 8ba1 873f dd5e ab3f
00000040: 2f09 1e3f 8a0b 3d3f 0db7 0940 ece8 a83f
00000050: edc2 513f dc76 8d3f 5ea5 b43f 6ef9 8e3f
00000060: ea16 813f b7d3 863f 2904 803f 6650 933f
00000070: 38f8 593f 0d72 813f 03b2 813f b363 9b3f
00000080: daac ae3f 4268 613f 2f46 a83f 0c6d a33f
00000090: a4e2 9b3f 7e03 bc3f ec26 533f dfdc 3b3f
000000a0: b44b 533f f66b ac3f 38da 7e3f 3cf6 8b3f
000000b0: 50d2 443f 6f5a 583f 7bb2 8a3f 8409 a63f
000000c0: fddc 243f df6c a13f 92cf 6c3f 2c67 993f
000000d0: db9f 793f f8d2 8d3f a547 6c3f 8f14 8f3f
000000e0: 3fbc 923f 3f4f b73f 0245 e83f 25d0 8b3f
000000f0: 4e81 bb3f 2279 7e3f 6cc9 a33f e0e4 4c3f
0.7534639 0.9235872 1.1883055 1.1232048 0.88880473 1.0791051 0.8768794 0.77482873
1.0657961 1.0627635 1.3379242 0.9173562 1.0944519 0.53658855 1.0596174 1.3388325
0.61732763 0.7384573 2.1517975 1.3196082 0.8193806 1.1051898 1.4112966 1.116987
1.0085118 1.053336 1.000127 1.1508911 0.85144377 1.011293 1.013245 1.2139801
1.36465 0.8804971 1.3146418 1.2767653 1.217854 1.4688566 0.82481265 0.733839
0.8253739 1.3470447 0.99551725 1.093452 0.7688341 0.8451299 1.0835718 1.2971654
0.643997 1.261135 0.9250423 1.198461 0.97509545 1.1080008 0.9229682 1.1178149
1.1463698 1.4321059 1.814606 1.0922896 1.4648836 0.99403584 1.2795844 0.80036736

conv3.weight f4 [128, 64, 3, 3]
00000000: 3b7d d33b 3f4a 8abd 2423 953b a8ad 2b3d
00000010: f3b4 da3c a6a8 35bd 74a3 24bc 8c9f 823c
00000020: 7661 0abd 7c50 13bd 86b7 2ebd 0088 babc
00000030: 0b3a 83bc 18c0 d33c 03ec 57ba af38 73bc
00000040: 2f41 113d 2848 efbc 09c5 1ebd 6cf6 533c
00000050: 93d7 d23c 3ba7 51bc 89ce 093d b3ba 4a3d
00000060: d9cf efbc 6b35 f43c c92e 853c 1c9c dd3b
00000070: dacd c83c e1d5 e83c 4c32 1abd 699b 693c
00000080: 1680 9abc 6744 a93c d65f 74bc 1cc2 b43b
00000090: edc9 98bd fd92 debb 2164 a13c 6e59 303c
000000a0: d8d1 db3c 56c0 05bd 4f1d 2ebc 7b62 5f3c
000000b0: 3ed0 45bc fab1 3bbc da8a 773c 6e24 3e3b
000000c0: dc87 873c 7051 0f3d a5c5 193c e4ed 693d
000000d0: 3880 633d 5351 30bd 88a3 143c bf29 43bc
000000e0: c08c 83bb 0c6a 483c 20f2 b93a 509c 893b
000000f0: a500 273c 79f0 c83c 5608 64bd fb03 47bd
00000100: 5395 bebb 50e4 9d3d c836 f13c 9948 6dbb
00000110: 8228 12bc e557 8e3c 6edb 89bd 34a1 77bd
00000120: 1445 3c3c bed9 b5ba ebfa 2bbc f011 53bd
00000130: 9812 f0bc cb42 b93c 4961 5cbc 0fbc 37bd
00000140: f58f 50bc eb99 473d 92a0 a73c b167 38ba
00000150: 6023 c33b b034 9a3c e45e 42bd 261e ef3b
00000160: 0f82 0b3d 8511 07bd de43 c2bc 7701 393d
00000170: a7f3 083d ffb5 5bbd 16c8 7abc 8821 f5bc
00000180: 0de8 f73b 90a7 c3bc 6c22 13bc 3e7d cb3b
00000190: 7bfa f13c e563 513b 8ce6 e93b f074 8cbc
000001a0: a2bc bcbc 2f7c 54bc b8a4 60bc 369e 11bd
000001b0: d5ba 893d 6a8a 373b f582 0d3c 2d23 373c
000001c0: 500b 0b3c c1a4 e7bc 061f 4bbd f970 07bc
000001d0: 5df2 50bd d7bd f33c 8aaa d73c 6328 4dbd
000001e0: 9797 b1bb cdb1 c13c dcd3 ebbb f7b1 be3c
000001f0: 8da5 3cbd cd4b 2ebc 8f27 53bd 755c 43bd
00000200: de26 883c 28c7 efbc d8d9 e9bc 2745 dc3c
00000210: a20c 68bb 39c9 7dbd ed4d d73c 38c9 9c3d
00000220: c0a7 af3c 9eae 12bd dad8 3c3c 35f2 60bc
00000230: 97c3 f23c f0c7 87bb a6fe 043d d8bd 273d
00000240: 2722 a0bc 220b c03b 55e2 73bc 1210 b03a
00000250: bc97 18bd 08c9 343c eb36 a9bc 840e 113a
00000260: 6089 aebb fb5b 2e3c a23a 073c 442e 843c
00000270: ad74 9d3b 0795 853c 7e00 3e3d a3cf 503c
00000280: 147f 253d c53f 803a 1c8e 59bd f7de 573d
00000290: 3368 943c d1cd 9e3c 7f6a fc3b bf4b 9d3c
000002a0: 7d4f b2bc 3a12 8f3a 777a 40bd 6e87 2f3c
000002b0: a352 0d3d 7d76 9239 0c97 983b d7f3 00bd
000002c0: 49cc ecbc b466 023a ce7e 043c 5c51 013d
000002d0: a92e 52bc 072b dabc afa9 dd3c b17b 00bc
000002e0: 358f febc 3961 58bd d3ae 523c a817 2a3c
000002f0: 1f7b 65bb d258 e83c 6e93 803c 0702 e83c
00000300: 43a9 563b 9a9f 23bc feae 12bd 674d d5bc
00000310: 64f9 3ebd d846 f13b a4e2 19bd 1489 533d
00000320: b86a e9bb 90b2 27bd a8b8 4abd 332e 09bd
00000330: c96a d9bc eb69 afbd e189 b1bb 720c e7bc
00000340: 0bbb 05bd a6a5 f93c ad34 1fbc 8707 d1bc
00000350: e0f2 2ebd e411 47bd 238a 96bc 76b8 5d3c
00000360: 21e0 b4bc da03 883b 99b0 8fbc c92b 57bc
00000370: 316a 6b3b 912e e6bc c561 893c 65ae 813b
00000380: dc2c 9bbc bcde 2abc 737e 43bd dd16 8bbc
00000390: c581 b03c dce2 27bb da69 e2bc 1a19 febc
000003a0: 88d3 2a3d 7f0b eabc de29 bbbc c411 c33b
000003b0: eaf5 26bc 6f1e 10bd 268c b23d 96c5 1f3d
000003c0: d382 06bb 7870 ee3b fb4e 003c df27 74bc
000003d0: 4753 e7ba e098 a13c 8256 d53c a334 203a
000003e0: c5b5 2dbc 5dc5 d63c 2ece f03c 8858 85bd
000003f0: 1811 2bbd a129 123c 2f66 2b3d 4d8d 973c
0.0064541376 -0.067524426 0.004551308 0.04191366 0.026697611 -0.04435029 -0.010048736 0.015945219
-0.033784352 -0.035965428 -0.04265549 -0.022769928 -0.016018888 0.025848433 -0.00082367676 -0.014845057
0.035462555 -0.029209211 -0.038762126 0.0129371695 0.02573756 -0.0127962185 0.033644233 0.049494456
-0.029273914 0.029810628 0.01625766 0.0067629945 0.02451222 0.028422298 -0.037645623 0.014258244
-0.018859904 0.0206625 -0.014915427 0.0055163037 -0.07460389 -0.0067924247 0.019701065 0.010763509
0.02683346 -0.03265413 -0.010627105 0.013634319 -0.012073575 -0.011456007 0.015108788 0.0029013413
0.016544275 0.034989774 0.009385501 0.057111636 0.0555422 -0.043046307 0.009072192 -0.0119118085
-0.0040145814 0.012232315 0.0014186539 0.004199542 0.010193025 0.024528729 -0.055672012 -0.04858778
-0.0058161407 0.07709563 0.029445067 -0.0036206602 -0.008920791 0.017375896 -0.06731306 -0.06045647
0.011491079 -0.0013874096 -0.010496835 -0.05153078 -0.029305741 0.022614857 -0.013450929 -0.04485708
-0.0127296345 0.048730772 0.020462308 -0.0007034494 0.0059551448 0.018823951 -0.047453776 0.007297295
0.03405958 -0.032975692 -0.023714002 0.045167413 0.03343549 -0.053640362 -0.015306493 -0.029923216
0.0075655044 -0.023883611 -0.008980375 0.0062099984 0.029538384 0.003195041 0.007138079 -0.017145604
-0.023039166 -0.012969061 -0.013711147 -0.035551272 0.067250885 0.0028006085 0.00863718 0.01117782
0.008486584 -0.028276803 -0.049590133 -0.008266681 -0.051012386 0.029753609 0.026326437 -0.050087344
-0.0054196822 0.023644352 -0.0071968865 0.02327822 -0.04605632 -0.0106381895 -0.051551398 -0.047695596
0.016620096 -0.02926977 -0.028546259 0.026888443 -0.003540792 -0.06195948 0.026282275 0.07655567
0.021442294 -0.03581106 0.011526311 -0.013729622 0.02963428 -0.0041437075 0.032469414 0.040952533
-0.019547535 0.005860702 -0.014885505 0.0013432524 -0.03725408 0.011034258 -0.02065607 0.0005533474
-0.005326435 0.010642047 0.008253725 0.016135342 0.0048051686 0.016306413 0.046387188 0.012744817
0.040404394 0.000978463 -0.05311404 0.05270287 0.018116092 0.01938525 0.007703125 0.019201158
-0.021766419 0.0010915466 -0.04699179 0.010713441 0.034502637 0.0002793557 0.004656678 -0.031482544
-0.028906005 0.00049744104 0.008086873 0.03157173 -0.012828507 -0.026631845 0.02705845 -0.00784199
-0.031074146 -0.052827094 0.012859064 0.010381617 -0.0035016013 0.028362665 0.0156953 0.02832128
0.0032754696 -0.009986782 -0.035811417 -0.026037885 -0.046624556 0.0073631816 -0.037569657 0.0516444
-0.0071233176 -0.040941775 -0.04949251 -0.033491325 -0.026540177 -0.08565124 -0.005418048 -0.028204177
-0.03264908 0.030474495 -0.009717149 -0.025516285 -0.042712092 -0.048601046 -0.018376416 0.013532748
-0.02207953 0.0041508498 -0.017540263 -0.013132998 0.003592145 -0.028098376 0.016770253 0.003957557
-0.018942289 -0.010429081 -0.047728013 -0.016978675 0.021546254 -0.0025617396 -0.027638365 -0.031017829
0.04170564 -0.028569935 -0.022847112 0.0059530456 -0.010190466 -0.035185274 0.087181374 0.039006792
-0.0020524755 0.007276591 0.00783133 -0.014902084 -0.001764872 0.019726217 0.026042227 0.0006111359
-0.010602419 0.026217157 0.02939519 -0.065110266 -0.04176435 0.008921058 0.041845497 0.018499995

conv3.bias f4 [128]
00000000: 600f bd3b 300f 3dbb e848 f1bb 24c1 203c
00000010: 05a2 193d 4c24 13bd 108f 98bc fa8d e03c
00000020: 1865 adbc 7499 5d3c 0b05 ffbc b064 d7bc
00000030: ca62 ec3c 5301 83bc 464d 903c f66f 92bc
00000040: 0f40 133d 7fa7 07bd a0c3 27bd 189e 2abd
00000050: eecd e33c 2eff fabc 3318 fcbc 1281 ff3c
00000060: 7edc 32ba 3052 7ebc 241b 43ba a5da 293d
00000070: 2f9f 073d e0ac d4bc 1c75 54bc 29e4 053d
00000080: 06a8 97bc 6f56 0b3d 943b 09bd 30bf 91bc
00000090: d042 2f3b b41a 573c 08f3 cabb 2cb7 07bd
000000a0: d235 dd3c 307b 1cbb db3a 11bd a241 d53c
000000b0: e157 293d c70e 1abd f97d 0d3d 5b27 b8bc
000000c0: b6e6 a4bc 163e d3bc 5683 0fbd 60dc 5d3c
000000d0: 84b1 4f3c 0ca7 76bc aeda a2bc 8ca6 363c
000000e0: 90f8 55bc fcab 053c cbf7 e8bc 6867 853b
000000f0: a09a 82bb e800 b4bc d31c b2bc e2b9 f73c
00000100: fb9b bbbc 408c a93c 23e0 08bd 7015 5abc
00000110: 3513 283d 2023 a23c 996f 213d f838 93bc
00000120: 8099 4dbc 876e 203d 6c90 263c 9369 15bd
00000130: e689 c5bc 581a c6bc 087d d5bb 2098 a63c
00000140: 170a 803a f025 a5bc 1419 4b3c e7b8 fc39
00000150: 7191 023d e1a3 1e3d 5081 c0bc 980f dc3b
00000160: 8019 673b 82b2 ba3c 6505 1e3d c62c 8f3c
00000170: 5802 d4bc d237 143b 5e5a c53c 18d4 ae3b
00000180: b025 6f3c f2b9 8f3c 5267 e83c 4c0e 11bd
00000190: 3dca 1b3d de72 8b3c 7c82 25bd eb4e 073d
000001a0: b331 94ba 2430 14bd 26da 76bc e2fb d43c
000001b0: 1818 cfbb f2a9 223a 9ae1 b33c 821b a73c
000001c0: 8dd8 143d b90e 203d e9fa 243d 56a1 8a3c
000001d0: bffd 53bb 20fe 7e3c 9188 64bb 4e39 d7ba
000001e0: 204e 5ebc 4826 873c 5745 13bd eb79 d2bc
000001f0: 0b51 02bd 8a96 b93c 7e8e 0ebd 7ada 04bd
0.005769655 -0.0028848164 -0.0073634274 0.009811673 0.03750803 -0.035923287 -0.018622905 0.02741145
-0.02116637 0.013525356 -0.031130334 -0.026293129 0.0288557 -0.015991842 0.017614972 -0.017875653
0.035949763 -0.03311872 -0.040958047 -0.041654676 0.027808156 -0.030639257 -0.030773258 0.031189475
-0.0006823017 -0.015522525 -0.0007442704 0.04146828 0.033110794 -0.02596134 -0.012967374 0.032688294
-0.018512737 0.034017976 -0.033504084 -0.01779136 0.0026742704 0.013128925 -0.0061935224 -0.03313367
0.027003203 -0.0023877136 -0.03545652 0.026032273 0.041343573 -0.03761175 0.034543965 -0.022479704
-0.020129543 -0.02578644 -0.03503736 0.013541311 0.0126766 -0.0150544755 -0.019879665 0.011148106
-0.01305975 0.00815868 -0.02843847 0.004071165 -0.003985718 -0.021973088 -0.02174226 0.030240003
-0.022901526 0.02069676 -0.03341688 -0.013310775 0.041033942 0.01979214 0.03941307 -0.0179715
-0.012548804 0.039167907 0.010166269 -0.036477637 -0.024113607 -0.024182484 -0.006515149 0.02033621
0.0009768632 -0.020159692 0.012396116 0.00048202949 0.031876985 0.038730506 -0.023499161 0.006715726
0.0035263002 0.022790197 0.038579363 0.017477404 -0.025880024 0.002261628 0.024090942 0.005335342
0.014596388 0.01754472 0.02836958 -0.035414025 0.038034666 0.017022546 -0.040407643 0.033034246
-0.0011306315 -0.036178723 -0.015066659 0.025999013 -0.006320011 0.00062051334 0.021958161 0.020398859
0.03633933 0.03907654 0.04027835 0.016922634 -0.003234729 0.015563518 -0.003487144 -0.0016420276
-0.013568431 0.016497746 -0.0359548 -0.0256929 -0.03181557 0.02265479 -0.03480386 -0.032434918

bn3.weight f4 [128]
00000000: 6f57 803f 8a1a 813f 17ab 703f f4f6 853f
00000010: f5d3 7f3f ffa5 823f 6502 7c3f ab5c 7e3f
00000020: 689b 843f 81f9 853f 1b5e 833f e191 7f3f
00000030: 6834 813f 9e4b 7b3f 30b5 8a3f 6c9e 813f
00000040: 1a7e 823f f160 7a3f 2eaa 813f e6f2 823f
00000050: d17b 8e3f fa26 843f d5c4 803f 3dae 863f
00000060: 2070 803f 211e 963f c4a2 7e3f ac93 823f
00000070: 13e9 7f3f 293d 803f 0424 8c3f 3742 8a3f
00000080: 78ae 853f 92cc 823f 601d 813f 5e08 7a3f
00000090: a4d3 7e3f bacc 803f 2337 723f ce14 8a3f
000000a0: eb7f 843f c7b4 7c3f 0c75 7b3f 00d9 823f
000000b0: fd04 843f 0fdd 873f b075 843f 5fd1 7d3f
000000c0: d029 7c3f 4ed9 7a3f 0a64 7f3f c636 823f
000000d0: 8132 823f 2e6e 803f fefd 833f f5aa 803f
000000e0: 4e7f 843f 95c6 803f 4b62 823f 8653 7d3f
000000f0: d40b 833f cdd0 763f cae4 833f 68fa 7c3f
00000100: c550 843f 1acc 843f 7c3b 803f ad66 7f3f
00000110: edf3 743f 0200 863f b608 7c3f f8ba 863f
00000120: 22c0 7d3f 79d3 783f e927 883f e173 873f
00000130: ca5d 7f3f fda7 843f 0c68 7d3f 432b 7e3f
00000140: 8555 7a3f a6a9 863f 427c 7c3f 8b91 803f
00000150: aef1 7d3f f0dd 7b3f 7a03 743f f1fb 863f
00000160: 2e56 7b3f f306 833f 0e0d 7a3f 8d79 803f
00000170: 64fc 8a3f 42e9 7d3f 7003 7c3f d693 803f
00000180: 5b67 7a3f 2cca 823f 737a 853f 2651 783f
00000190: 991e 853f de19 863f 35ca 7c3f f338 853f
000001a0: a1f7 803f 5131 7b3f 356a 883f baaa 833f
000001b0: 1bbe 803f 23d0 803f 1afb 833f cc5f 823f
000001c0: 3832 833f d388 843f 1122 853f b17b 7e3f
000001d0: 8b75 7e3f a035 823f 2301 803f 55cd 713f
000001e0: cb22 803f 603e 7e3f 0568 843f adbe 893f
000001f0: a762 883f f817 783f 886c 783f 88c4 7b3f
1.0026683 1.0086224 0.9401106 1.0465989 0.99932796 1.0206908 0.98441154 0.9936015
1.0359926 1.0466768 1.0263094 0.9983197 1.0094118 0.9816226 1.0836544 1.0126472
1.0194733 0.9780417 1.013006 1.0230377 1.1131536 1.0324395 1.0060068 1.0521923
1.0034218 1.1727945 0.9946711 1.0201316 0.9996502 1.0018665 1.0948491 1.0801457
1.0443869 1.021868 1.008709 0.9766902 0.9954169 1.0062478 0.9461538 1.0787599
1.0351537 0.98713344 0.98225474 1.0222473 1.0314022 1.0614337 1.0348415 0.991476
0.985013 0.9798783 0.9976202 1.0172966 1.0171663 1.0033624 1.0311887 1.0052172
1.035135 1.0060602 1.0186247 0.9895557 1.0237985 0.96412355 1.0304196 0.9881959
1.0337149 1.0374787 1.0018153 0.99766046 0.956847 1.0468752 0.9845079 1.0525808
0.99121296 0.9719768 1.063718 1.0582238 0.99752486 1.0363766 0.9898689 0.9928476
0.9778674 1.0520523 0.986271 1.0044416 0.991969 0.98385525 0.95317805 1.0545636
0.98178375 1.0236496 0.9767617 1.0037094 1.0858274 0.9918405 0.98442745 1.0045116
0.9781396 1.0217948 1.0427994 0.9699882 1.0399963 1.0476644 0.98746043 1.0408005
1.007557 0.98122126 1.0657412 1.0286477 1.0058016 1.0063518 1.0311005 1.0185485
1.02497 1.0354255 1.0401021 0.9940749 0.99398106 1.0172615 1.0000347 0.94453937
1.0010618 0.99313927 1.0344244 1.0761315 1.0655106 0.96911573 0.97040606 0.9834676

bn3.bias f4 [128]
00000000: 3fb7 5cbd e03c 34bd 86d1 aebd 27bd 9dbd
00000010: 1b76 3bbd 4b10 2dbd 6ca2 48bd 7835 d8bc
00000020: 645d b4bd c67c 98bd fe8f c3bd b1bb abbd
00000030: 98a2 8bbd f494 17bd cfd6 6ebd dca6 cfbd
00000040: 67d0 a9bd 0633 9fbd 8bf7 b2bd 485d 90bd
00000050: f454 a5bd 3d52 8cbd 754d aabd 9cf0 8bbd
00000060: e570 bbbd b973 10be 7a40 93bd ae90 92bd
00000070: fa3e 5bbd 96b7 92bd 84a7 c4bd 1312 a4bd
00000080: 2428 b1bd 3a53 a7bd 6ca4 82bd e7ab 9cbd
00000090: f61a 81bd 7545 98bd 4c8e b1bd 5272 9dbd
000000a0: 763a 97bd 5ad0 4abd b74b 77bd c72d 97bd
000000b0: f435 3bbd c397 91bd 8a07 84bd f1a8 51bd
000000c0: de08 56bd 9887 adbd c0b9 24bd dda9 82bd
000000d0: 6423 38bd 9a64 1cbd dc47 8fbd a8f1 93bd
000000e0: 32ce 93bd 60b9 b3bd 66c9 84bd 6f62 2abd
000000f0: 1bfb 52bd 9b2b 75bd f8be 39bd 3bbe cfbd
00000100: 605f 66bd e008 57bd f0b6 2ebd f52f c4bd
00000110: 1ac9 b4bd 9698 a7bd a6f5 debd c570 9abd
00000120: 1bbf 8bbd 6605 bfbd a2e7 c3bd 0763 72bd
00000130: 1eb5 a0bd 12e2 d3bd 5d9c 83bd 27ad 63bd
00000140: 6126 ecbd 5acb 8bbd 466e bcbd 4f85 bbbd
00000150: 2131 babd 090f 97bd 3034 ccbd 2236 90bd
00000160: 8c7c 48bd ce47 b8bd 781f 60bd 93c5 c8bd
00000170: a076 c5bd 2a61 c0bd 0f62 adbd bf0b a2bd
00000180: 55c1 a5bd d921 b2bd f7c3 8bbd 5a32 aebd
00000190: 9f75 acbd 9080 92bd f69d 98bd 2988 a6bd
000001a0: b3fd babd 293f 63bd d917 c6bd db72 8dbd
000001b0: f76a 5cbd 560b 32bd 967d 85bd ef4b adbd
000001c0: 832b 67bd c0d1 86bd 7a76 90bd df64 b8bd
000001d0: 1c7c a4bd 548a 95bd fc98 a8bd 5594 9bbd
000001e0: 8ed0 b6bd b010 2dbd eacf a1bd af84 c8bd
000001f0: db14 98bd 5344 77bd 0e16 93bd e175 57bd
-0.053885695 -0.044003367 -0.08536057 -0.077020936 -0.04576693 -0.042251866 -0.048983023 -0.026392683
-0.08806875 -0.07445674 -0.09548949 -0.08385409 -0.06818122 -0.037007287 -0.058310326 -0.10139248
-0.08291703 -0.07773404 -0.08738621 -0.07049042 -0.08072844 -0.06851623 -0.08315555 -0.06833002
-0.09152392 -0.14106645 -0.07190032 -0.07156502 -0.053526856 -0.071639225 -0.096022636 -0.0801126
-0.08650234 -0.08170171 -0.06379017 -0.07649975 -0.063039705 -0.07435123 -0.08669719 -0.076878205
-0.073841974 -0.049515106 -0.06037494 -0.07381778 -0.04570575 -0.071090244 -0.064467505 -0.051186506
-0.05225455 -0.08473128 -0.040216208 -0.06380055 -0.044955626 -0.03818188 -0.06996128 -0.07223827
-0.07217063 -0.08775592 -0.06483726 -0.04159778 -0.051509004 -0.05985604 -0.045348138 -0.101437055
-0.0562433 -0.0524987 -0.04265493 -0.095794596 -0.088274196 -0.081834 -0.108866975 -0.0754104
-0.0682356 -0.093272015 -0.09565665 -0.05917647 -0.07847045 -0.10345854 -0.06426308 -0.055585053
-0.11530758 -0.068258956 -0.092007205 -0.09156286 -0.09091402 -0.073759146 -0.099708915 -0.07041575
-0.048946902 -0.08998071 -0.05471751 -0.09803309 -0.096417665 -0.093935326 -0.08465969 -0.07912397
-0.08093516 -0.08697862 -0.06824487 -0.085056975 -0.08420872 -0.071534276 -0.07452004 -0.08131439
-0.091304205 -0.055480156 -0.09672517 -0.069066726 -0.053812947 -0.043467842 -0.06518094 -0.08461749
-0.05643798 -0.065829754 -0.070538476 -0.09003615 -0.080314845 -0.073017746 -0.082323045 -0.075966515
-0.089264974 -0.042252243 -0.079009846 -0.097909324 -0.07425853 -0.060367893 -0.07181941 -0.052602652

bn3.running_mean f4 [128]
00000000: e8e4 a5be 88fe 9cbf 749c 96bf dc11 81bf
00000010: d82b 27bf 536d 37bf 41f7 8fbf e0d1 98bf
00000020: e569 91be a4ee 733f e4e8 04c0 a3e5 4fbf
00000030: e267 bcbf 5e58 93bf 7b2c 3ebb ec3f 5dbf
00000040: 0c32 40bf f50f 2ebf 9811 32be 1503 6cbe
00000050: 3202 32bf 13ed 7fbe 36b7 0fbf 29f7 c3bc
00000060: c285 74bf 2abd ecbf 2a18 a8bf 4ea3 b6bd
00000070: 8906 2cbe 3143 69bf 0557 5bbf e1cc 3d3f
00000080: 32d0 3bbf 5e04 f5bb bea5 29bf fe6d 00bf
00000090: a0be 75be 6e77 63be ffa9 37bf a207 5abf
000000a0: 88be 9d3f 65dd 27bf 50db 94bf c019 2cbf
000000b0: 5293 0ebf a1c3 383e bdfe fabe b4a0 623e
000000c0: d281 3ebf f88d 54be 70cb 4ebf 5a20 e3be
000000d0: 24a4 e5be 428d 5dbf 7ac4 43bf 6f1d 90bf
000000e0: b22a ad3d bc46 40bb 2c76 8dbf 8aa8 0abf
000000f0: 311e 5dbe a1f3 26bf d38b 15bf b466 f5be
00000100: ed41 243b 37e5 01bf f15d 33bf bb28 38bf
00000110: 101f 3bbf c49e f1bc 4c62 4dbf 0835 1a3f
00000120: 05f1 43bf 6d69 443e 8129 9fbe a258 48bf
00000130: ecb7 c4be 5a67 abbf 2834 58bf 7b71 593e
00000140: b906 c1be 3a2d 75be 3b47 46bf e7e1 16bd
00000150: b882 c2be 1fde 04bf 7354 57bf b431 103f
00000160: 67b9 6cbf 941d c9be b0df 87bf b8f7 95bf
00000170: ed07 70be 572b 0ebf 6115 853e 6a09 8abf
00000180: f956 a8be c74a adbe 3bb7 01bf 7c7d aebf
00000190: 26cb 82bf 74ce a4be f840 aabe 48a7 fb3d
000001a0: 54ca 47bf ddae 60bf 6844 f2bf 81d2 09bf
000001b0: a4bf 86bf b853 193f 10cd 25bf c4e5 9fbe
000001c0: c0c0 8abc 97bf d3bd 72a9 f3bd 77b6 1cbf
000001d0: c0f1 fabd 1111 603c 056c 93be d6e6 9a3d
000001e0: 8d20 45bf 3eac 7dbf 1444 9dbf 3517 b4bf
000001f0: 4ff7 573e ee79 7bbe 0dea 13bf 04e7 09bf
-0.32401204 -1.2265177 -1.1766496 -1.0083575 -0.65301275 -0.7165119 -1.1247331 -1.1939049
-0.28401104 0.9528601 -2.0767145 -0.8120977 -1.4719203 -1.1511343 -0.0029018212 -0.8642566
-0.75076365 -0.679931 -0.17389524 -0.2304805 -0.695346 -0.2499278 -0.5613893 -0.023921566
-0.955166 -1.8495228 -1.3132374 -0.08917867 -0.16799368 -0.9111815 -0.85679656 0.74140745
-0.73364556 -0.0074773272 -0.6626853 -0.50167835 -0.23998499 -0.22213528 -0.7174377 -0.85167897
1.232377 -0.65572196 -1.1629429 -0.6722679 -0.5569354 0.18043377 -0.49022475 0.22131616
-0.7441684 -0.20757282 -0.8077917 -0.4436062 -0.44851792 -0.8654367 -0.76471674 -1.1258982
0.08455409 -0.0029339036 -1.1051688 -0.5416342 -0.21593548 -0.652155 -0.5841648 -0.4792992
0.002506371 -0.5074038 -0.7006522 -0.7193715 -0.7309427 -0.02949465 -0.80228114 0.6023717
-0.7653964 0.19180842 -0.31086352 -0.7826024 -0.3842157 -1.3390915 -0.84454584 0.21234696
-0.3770044 -0.23943034 -0.7745244 -0.03683653 -0.37990355 -0.5190143 -0.84113234 0.5632584
-0.924704 -0.3928038 -1.0615139 -1.1716223 -0.23440523 -0.5553488 0.25992873 -1.0784123
-0.32878855 -0.33846113 -0.5067021 -1.3632045 -1.0218246 -0.3218876 -0.33252692 0.12287766
-0.78043103 -0.8776682 -1.8927126 -0.5383683 -1.0527234 0.5989337 -0.64766026 -0.31229985
-0.016937613 -0.10339277 -0.118975535 -0.6121592 -0.122531414 0.013675944 -0.2879335 0.0756356
-0.77002794 -0.99090946 -1.2286401 -1.4069582 0.21090434 -0.24558231 -0.5777901 -0.53868127

bn3.running_var f4 [128]
00000000: f1e6 483f 804d 4f3f 2e86 4f3f 1918 bd3f
00000010: ca0a 853f b74f 363f 4df3 583f 3ac6 613f
00000020: 76d4 943f 247b 9a3f bdcd a03f 6bc3 5f3f
00000030: c48e 813f c04a 433f 953c 7b3f 3d4e 9a3f
00000040: 695b 6e3f 281e 6b3f 1d91 7c3f 970e 8d3f
00000050: 1859 883f 5b50 ac3f 7dda 8a3f 4d3f a23f
00000060: 8ff0 a33f a6f9 b53f 321f 933f c967 a43f
00000070: a7a4 583f 3605 833f 1d96 b03f 5b43 933f
00000080: 7776 9b3f 152f 903f 4830 403f d2ac 6e3f
00000090: 2ff2 473f 18de 993f 4df3 3c3f 92ac 6c3f
000000a0: cd2e 8e3f 4dbc 813f 4f3c 543f 9305 543f
000000b0: 27da 643f df57 8c3f 9c39 a63f d078 5a3f
000000c0: f876 523f 5391 783f c2d5 693f 0492 9f3f
000000d0: d348 363f 110f 2a3f 2d02 5a3f da8e c73f
000000e0: 21cd 5b3f 6b0b 553f 2a22 6c3f 35df 1e3f
000000f0: d112 663f 5993 173f eefe a23f 80fa 5e3f
00000100: 6832 603f 6a72 8e3f 110f 283f ce98 673f
00000110: b29d 473f 7908 a73f afc4 893f 53ea 813f
00000120: c525 8c3f 28d8 5b3f 711f 903f d5fc d93f
00000130: 13e7 953f e801 863f cba9 473f 3bee 6e3f
00000140: 4dfe 823f 1f97 653f 2469 903f 7246 823f
00000150: 2da5 6d3f f84a 4b3f 062d 443f c2c9 923f
00000160: 2c81 523f 37fc 813f da25 603f 3930 b03f
00000170: 9c22 b63f db99 4a3f b6ca 4f3f 7b79 643f
00000180: 2920 603f 83f2 933f 4567 a63f 710d 553f
00000190: 2d96 763f 5465 893f 2ada 783f 9726 803f
000001a0: baca 913f 8549 123f bf55 ab3f 5b4b 683f
000001b0: 2992 7c3f dce8 783f bc50 a63f 1851 943f
000001c0: 78ed 9c3f 98b9 7b3f b998 7b3f 0a73 993f
000001d0: e2f1 343f 756e 7c3f 1f28 7d3f a502 7b3f
000001e0: 1f3f 703f 3d46 423f 51c5 803f 320b c13f
000001f0: 64d0 8e3f b2d6 4d3f 205b 9b3f c23e 343f
0.7847739 0.8097763 0.81064117 1.4772979 1.0393918 0.71215385 0.8474625 0.88193095
1.1627338 1.206883 1.2562786 0.8740756 1.0121694 0.76285934 0.98139316 1.2055126
0.9310823 0.9184289 0.98658925 1.1020077 1.0652189 1.3462023 1.0847927 1.2675568
1.2807788 1.4216812 1.1493895 1.2844173 0.8462624 1.0235965 1.3795811 1.150493
1.2145528 1.1264368 0.7507367 0.9323245 0.7810392 1.2020903 0.7380875 0.9245082
1.1108032 1.013559 0.82904524 0.82821006 0.89395374 1.0964316 1.2986331 0.85340595
0.8221278 0.9709675 0.91341794 1.2466435 0.7120487 0.6642924 0.8515957 1.559047
0.85859877 0.8322055 0.9223963 0.62059337 0.8987246 0.5920921 1.2734048 0.8710098
0.87576914 1.1128666 0.6564799 0.90467536 0.77975 1.3049461 1.0763148 1.0149635
1.0949026 0.85876703 1.1259595 1.7030283 1.1711143 1.0469332 0.7799346 0.9333226
1.0233856 0.8968372 1.1282086 1.0177748 0.92830163 0.7941127 0.766312 1.1467822
0.8222835 1.0155095 0.87557757 1.3764716 1.4229312 0.79141015 0.8116869 0.89247864
0.8754907 1.1558384 1.3000265 0.83223635 0.963229 1.0734048 0.9720789 1.0011777
1.1389992 0.5714343 1.3385543 0.90739983 0.9866052 0.97230315 1.2993388 1.1587248
1.225997 0.9833007 0.9827991 1.1988232 0.70681584 0.98606044 0.98889345 0.9805091
0.93846315 0.75888425 1.0060216 1.5081542 1.1157346 0.80405724 1.2137184 0.7040826
